Seminario.Api/classifier_sentimientos.onnx (onnx, 39048 bytes, 14 tensors)

fc1.weight f4 [64, 105]
000000 03 33 4b 3b fd 58 0b 3d 0b 58 b7 3c 16 84 9b bc
       0.0031005747 0.034020413 0.02238085 -0.018983882
000010 24 de 17 3c 7c cb 58 3d cc f7 de 39 27 6b 00 3d
       0.009269271 0.052928433 0.00042527763 0.03135219
000020 54 28 50 bc e1 bc 64 bc a9 f9 4c bb 15 9d c9 bb
       -0.0127049275 -0.013961048 -0.0031276739 -0.006152759
000030 64 e0 c2 bb 36 e5 d8 bc e8 36 d6 3c 47 6c 92 bb
       -0.0059471596 -0.026476484 0.026149228 -0.004468474
000040 b4 e5 dd bc 19 d0 57 3b 8a dc 9b 3b fe db bb 3a
       -0.02708707 0.0032930432 0.004756515 0.001433253
000050 50 e0 90 bb 12 d7 c8 bb 33 39 42 b2 3b 35 6d bb
       -0.0044212714 -0.006129154 -1.1305292e-08 -0.0036195058
000060 b3 ff c3 bc 5b 00 9d bc 54 84 9b bb 0e 5b 9c bb
       -0.023925638 -0.019165209 -0.0047459994 -0.0047715968
000070 44 68 4d bb 87 58 4d bb ec c9 ef 3c 09 a1 41 3d
       -0.0031342665 -0.0031333284 0.029271089 0.047272716
000080 11 f8 0e bc be 0f f6 b8 b5 76 99 bb 26 73 53 bd
       -0.008726136 -0.00011733126 -0.0046833404 -0.051623486
000090 7e 87 1c bd e0 1a d4 bb be 30 80 3b a8 cb a2 bb
       -0.038215153 -0.0064729303 0.0039120605 -0.0049681254
0000a0 e3 15 c5 3a 02 fc 47 bc ff 15 1f bc ba 28 1f bc
       0.001503643 -0.012206079 -0.009709834 -0.0097143
0000b0 87 ec 07 bc ac 27 90 3b a5 b2 48 bb 2e 5c f6 bc
       -0.008296139 0.0043992605 -0.0030624059 -0.030073252
0000c0 33 ec cd bc 11 f5 4a 3d 9a f6 34 3b 31 97 45 b0
       -0.025137043 0.04955012 0.0027612806 -7.188304e-10
0000d0 fe 31 af 3b b1 ea 0e 3b 46 43 70 3a e7 23 8a 3a
       0.0053465357 0.0021807367 0.0009165298 0.0010539264
0000e0 a5 68 76 3a 2a 2a 5c 3c 54 ec 20 3b fb 15 84 bc
       0.00093997485 0.013437787 0.0024554925 -0.016123762
0000f0 dc 9a 80 bb 06 19 9b bb ef 0c 5c bc 47 15 92 bc
       -0.0039247107 -0.0047332076 -0.013430818 -0.017832411
000100 ea 22 be b8 e0 1f 8b 3c e6 ea 41 3b d2 47 0c bc
       -9.066409e-05 0.016982973 0.0029589473 -0.008562045
000110 0e 65 94 3c eb 6c a2 bc 9a 84 4f bb 90 7b d9 bb
       0.018114593 -0.019827327 -0.003166473 -0.0066370443
000120 57 ae e0 bb 59 b3 9d 39 ba 30 51 b9 f5 8a d9 3b
       -0.0068567204 0.00030078998 -0.00019949945 0.0066388794
000130 d6 e7 87 3b 20 d5 8a 37 fc a3 7e 3c b9 14 92 bc
       0.00414751 1.6550126e-05 0.015542027 -0.017832147
000140 69 1d 27 bb fc a7 63 ba a0 8e 59 3b 9b 69 08 3d
       -0.0025499708 -0.00086843944 0.0033196583 0.03330384
000150 a2 a9 6d bc 75 ca f2 3c 83 c9 8d 39 1d 3f 0e 3c
       -0.014505776 0.029637555 0.00027043754 0.00868204
000160 2c 4f 44 3c d7 2c 1f bc 62 43 6b 3a ff 35 da bb
       0.011981767 -0.0097152805 0.00089745794 -0.006659269
000170 e0 11 3b bc fa 0b 19 bb 62 00 bd 3a 41 3d aa bc
       -0.011417836 -0.0023353086 0.001441967 -0.020781161
000180 be ea b8 3a af fa d5 bb c4 25 90 3b e0 c7 76 3c
       0.0014108045 -0.006530128 0.0043990333 0.015062302
000190 de d1 43 3b fa bc 36 bc 4e 79 a5 3a a8 52 b5 3a
       0.002987973 -0.011153454 0.0012624653 0.0013833838
0001a0 f8 62 6a 3a 14 1b e7 bb 94 de 4c 3d 9c 79 28 3d
       0.0008941139 -0.0070527885 0.050016955 0.0411316
0001b0 b1 e4 3f 3d 8a 7a 6f ba 42 ba 8a 3c 3f 18 24 3d
       0.046848956 -0.0009135386 0.016934518 0.040062185
0001c0 27 c8 9a 3b 70 e9 bf bc 1e 06 19 bc 1c 55 66 39
       0.004723567 -0.023426741 -0.009339837 0.00021966215
0001d0 44 80 3a 3c de 77 3a 3c 68 67 f7 ba 9d 10 f6 3c
       0.01138312 0.011381118 -0.0018875422 0.030037219
0001e0 5a a5 cb bb 25 ff e9 bb c6 c7 f6 bb cb 5b 29 bc
       -0.00621478 -0.0071410113 -0.007531139 -0.010336827
0001f0 43 04 99 3c e4 b9 cb bb 31 91 3a 3c 24 eb d0 b1
       0.01867879 -0.0062172282 0.011387155 -6.080329e-09
000200 e4 a4 0b bb 89 dd c0 bc cd 38 c5 bc 81 47 79 bc
       -0.0021308 -0.023543136 -0.024074936 -0.015214802
000210 24 ec dc ba 66 99 4c 39 f4 8c 43 39 4f 0b 91 3d
       -0.0016855043 0.00019512101 0.00018649158 0.07082235
000220 bf f8 76 3d f0 5a 7b 3d 51 e6 cf bc 2c f4 8c bb
       0.060295817 0.06136602 -0.025378378 -0.0043015685
000230 1d fa 17 3a e0 c8 bd 3a d2 7f d7 ba b5 eb dd bb
       0.00057974627 0.0014479421 -0.0016441292 -0.0067724832
000240 2f 4a ce bb ff 91 a7 bb 02 b9 91 bb 83 11 50 3c
       -0.0062954645 -0.0051138396 -0.0044471035 0.012699488
000250 f9 ee 4f 3c 33 25 19 bd b9 d0 21 bc 70 5a 6e bc
       0.012691253 -0.03738899 -0.0098764235 -0.014547929
000260 f4 f1 e4 3a 56 b7 35 3d 74 3e 8c ba 12 a7 70 bc
       0.0017467127 0.044364296 -0.0010699765 -0.01468827
000270 71 94 87 b1 d0 31 fc b9 9d b9 36 ba 90 1b 11 bb
       -3.945893e-09 -0.000481023 -0.00069704076 -0.0022141673
000280 9b 6a 37 bb 83 f5 0e bb da 65 e4 bc c6 4d 4b 3c
       -0.0027987126 -0.0021813817 -0.027880598 0.012408679
000290 50 eb 9f bb c9 d8 87 bb 30 59 b8 bc f5 07 ca bc
       -0.0048803464 -0.004145716 -0.022503465 -0.024661997
0002a0 7a c0 54 bb 98 e1 9e 38 f2 d0 fc 3c 12 3d 5d ba
       -0.0032463358 7.576047e-05 0.030861352 -0.0008439581
0002b0 d9 c3 4a bb 60 35 06 3d c3 95 e3 3b 4f 7a c6 ba
       -0.0030939488 0.032765746 0.006945343 -0.0015142652
0002c0 a4 81 d7 ba b7 d0 67 bc e4 82 26 bc 52 94 f3 bb
       -0.0016441834 -0.014148883 -0.010163043 -0.0074334526
0002d0 e6 a2 07 bc be 81 f9 bb 5d 8b 53 ba 50 65 60 3c
       -0.008278584 -0.0076143434 -0.0008069778 0.01369603
0002e0 c4 c2 4d bb f1 c1 07 bb 1e fe 19 bd aa a6 cf bb
       -0.0031396607 -0.0020714963 -0.03759586 -0.0063370066
0002f0 4a da 5a 3a 4e 4f 2d 3c eb 39 b7 3a 53 39 9d b9
       0.00083485676 0.01057799 0.0013979053 -0.00029988083
000300 2c ec c2 3c c0 42 f4 3c 61 fc 4f 3c 98 33 55 39
       0.023794256 0.029816985 0.012694449 0.00020332483
000310 46 3b af bb 7a 10 50 3b 9b 02 0d bb 23 62 a3 bb
       -0.005347642 0.0031748102 -0.0021516446 -0.004986064
000320 4f 19 c3 3b 10 1b 99 3c ce 24 e7 bb ec f1 21 bc
       0.0059539448 0.018689662 -0.007053948 -0.009884339
000330 ca 85 b4 ba 1f 13 55 ba 0f dc 51 3b ae d1 a3 bb
       -0.0013772782 -0.00081281544 0.0032022034 -0.004999361
000340 a8 d9 8e bc 32 15 5d 39 74 b3 b0 bb 6f 57 49 3d
       -0.017437771 0.00021084098 -0.005392486 0.04915565
000350 d4 7f 54 3c 74 41 49 bc 54 95 82 bb 68 2d ae 3c
       0.01296993 -0.012283672 -0.0039850865 0.021261886
000360 ba 5d ca bb 2d 75 12 3d 14 27 4d bb ad 7e 25 bb
       -0.006175724 0.03575628 -0.003130381 -0.0025252507
000370 8b 45 08 bc fe 90 65 bc c7 83 65 bc 26 62 30 ba
       -0.008317362 -0.01401162 -0.014008469 -0.00067284924
000380 fb b8 1e 3d ef 51 ee bb b9 e9 b8 bb b5 5f cc bc
       0.03875063 -0.007272951 -0.0056430963 -0.02494798
000390 34 83 ae 3c fd 4b f0 bb 79 57 ee bb ba 91 65 bc
       0.021302797 -0.0073332773 -0.007273611 -0.014011795
0003a0 a8 76 53 b2 58 a0 32 3c 92 1f ee 3c 12 48 0b bc
       -1.2308796e-08 0.010902487 0.029067788 -0.00850107
0003b0 12 08 e7 3c be 39 d7 3b 68 a2 06 bc 3c c2 06 bc
       0.02820209 0.0065681627 -0.008217432 -0.00822502
0003c0 5d f2 15 3d 6c a0 f2 3c f1 a7 e1 bb 79 30 cc bb
       0.03660809 0.02961751 -0.0068864753 -0.0062313643
0003d0 89 de 78 bb d9 b8 d9 bc a9 ad d7 bc d8 a5 e7 3b
       -0.0037974438 -0.0265774 -0.026327925 0.0070693307
0003e0 14 6c 34 bc 5a fd 87 ba 00 0e 01 3a f5 1c 59 3a
       -0.011012096 -0.0010375187 0.00049230456 0.0008282208
0003f0 f7 82 0c 3a 1e ee 0c 3a e2 96 d7 bb 44 86 6d 39
       0.00053600915 0.00053760584 -0.006579266 0.00022652099

fc1.bias f4 [64]
000000 4f 39 54 b3 bd 8d 4b 33 e3 d2 1a 33 30 ae f1 b4
       -4.941222e-08 4.739353e-08 3.604772e-08 -4.5016486e-07
000010 d3 51 c0 34 7b f6 19 b4 80 9f 95 b4 dc 0c 67 b4
       3.5822322e-07 -1.4338904e-07 -2.7869464e-07 -2.151823e-07
000020 70 03 ba b3 a7 6a 95 34 8e 2d 8a 33 16 f0 b1 34
       -8.661925e-08 2.7831013e-07 6.434412e-08 3.3143505e-07
000030 40 ed af 33 ec 71 9d b4 a6 65 fd b3 cb 94 89 b4
       8.192228e-08 -2.9326418e-07 -1.179972e-07 -2.56265e-07
000040 eb 2f ef b2 c7 11 4c 33 60 ed 3a 34 71 7a 28 34
       -2.7845052e-08 4.751362e-08 1.7408956e-07 1.5690763e-07
000050 a6 94 05 33 7d 1c cc 33 00 02 32 b1 a6 35 d1 34
       3.110167e-08 9.504672e-08 -2.5903546e-09 3.8968318e-07
000060 32 19 7c b3 14 ac 53 32 22 21 c2 b4 24 95 a5 34
       -5.8696237e-08 1.23209425e-08 -3.6159423e-07 3.084216e-07
000070 08 e7 01 b4 0e b1 2a 35 5b 73 1d 34 6d 78 7d 34
       -1.209811e-07 6.3587584e-07 1.466373e-07 2.3606272e-07
000080 a8 9a 10 34 18 2c 84 32 fd fc 0b 34 55 b8 a1 b3
       1.3467309e-07 1.5386874e-08 1.303742e-07 -7.5306765e-08
000090 89 93 c2 b3 93 95 79 34 64 a3 55 b5 d8 cb d3 b3
       -9.0606655e-08 2.3244347e-07 -7.958645e-07 -9.862532e-08
0000a0 12 b3 c6 b3 81 b8 07 b3 4e 3b 17 b4 c9 44 f1 b4
       -9.252666e-08 -3.1599942e-08 -1.4084546e-07 -4.4939796e-07
0000b0 9c 99 a8 33 a6 eb ec 33 0c b6 5d 34 20 ca 4a 32
       7.851051e-08 1.10324706e-07 2.0648457e-07 1.1803905e-08
0000c0 be 18 12 b3 d6 0b 3e 33 e5 b8 85 b4 5b 1f 30 b5
       -3.4015777e-08 4.4248587e-08 -2.490771e-07 -6.561074e-07
0000d0 c4 68 99 33 5c bb 0e b4 21 7a f9 33 f9 e1 3e b5
       7.1436745e-08 -1.3292942e-07 1.1617181e-07 -7.110935e-07
0000e0 ba fc aa 33 3c 8a 85 b3 51 05 e6 33 2a d0 70 32
       7.9622126e-08 -6.21844e-08 1.0711177e-07 1.401717e-08
0000f0 26 90 4c b2 37 78 d3 34 4e 74 57 b4 9d e7 0c b5
       -1.1907138e-08 3.938928e-07 -2.0065747e-07 -5.2491106e-07

bn1.weight f4 [64]
000000 07 eb c8 3d a1 61 b0 3d 43 a8 c0 3d 11 57 e1 3d
       0.09810453 0.08612371 0.094070934 0.11002935
000010 a0 f4 db 3d e2 da f1 3d 7f 4d 03 3e bb d4 e0 3d
       0.10740018 0.11809327 0.12822531 0.10978075
000020 ad ab ce 3d 9b 35 ec 3d e1 89 d9 3d 96 d4 ce 3d
       0.10091338 0.11533662 0.106220014 0.10099141
000030 e6 27 f1 3d 4c e8 fd 3d 1b 18 c3 3d b9 c2 c1 3d
       0.11775188 0.12397823 0.09526082 0.094609685
000040 7a e6 f9 3d be d7 c9 3d c9 72 fc 3d 20 c9 c5 3d
       0.12202163 0.09855603 0.12326581 0.09657502
000050 a0 36 a4 3d c5 70 ca 3d 7a 98 de 3d 30 ce d5 3d
       0.080182314 0.0988479 0.10868926 0.10439718
000060 36 62 ad 3d 94 eb ce 3d b9 37 e4 3d a8 3f f5 3d
       0.08465998 0.10103527 0.11143441 0.11975032
000070 04 ae da 3d 57 2c d8 3d 5e 3a e4 3d f6 4b d1 3d
       0.10677722 0.10555332 0.11143945 0.102195665
000080 3e fc e7 3d b1 66 01 3e 30 2f e9 3d 20 4e cf 3d
       0.11327408 0.1263683 0.113859534 0.10122323
000090 a9 cc c3 3d 01 c9 d6 3d 75 0e df 3d c1 40 d1 3d
       0.0956052 0.10487557 0.10891429 0.10217429
0000a0 7a fd e8 3d 42 7a da 3d 6f 72 d2 3d d0 52 ed 3d
       0.11376472 0.1066785 0.10275733 0.11588061
0000b0 d7 b1 ea 3d 2e 45 dc 3d 2f 88 e6 3d 0b b0 ed 3d
       0.114597015 0.107553825 0.11256444 0.11605843
0000c0 64 b5 d2 3d aa ed b4 3d 58 5f f4 3d 65 22 d2 3d
       0.10288504 0.08834393 0.11932248 0.102604665
0000d0 1f 3a d3 3d 41 8f e3 3d 2b a9 f1 3d cc a7 e1 3d
       0.1031382 0.11111308 0.11799844 0.11018333
0000e0 7b 7e e0 3d cd 05 c9 3d 09 a5 00 3e 4b dd ce 3d
       0.10961624 0.098155595 0.12562956 0.10100802
0000f0 f6 49 be 3d 0f 04 08 3e c8 ab ca 3d f3 f3 0b 3e
       0.09291451 0.13282798 0.09896046 0.13667278

bn1.bias f4 [64]
000000 8f 29 2c bd 59 ef b2 bb be 64 23 3c 3b 8a dc bc
       -0.04203182 -0.0054606614 0.009972749 -0.026921382
000010 c6 41 a3 bc b2 88 31 bd dd 74 ea bb 9f d7 17 bc
       -0.019928824 -0.043343253 -0.0071550445 -0.009267717
000020 a9 14 93 bb 5c 3c ff 3c 9b d3 bf 3c 65 3f ed bb
       -0.004488547 0.031156711 0.023416331 -0.007240223
000030 07 02 4f bd 40 3f 9a bc b8 09 33 bd 2f ef 0a 3c
       -0.050539043 -0.018828988 -0.04371044 0.008479877
000040 49 a3 96 bc 89 2b 62 bc 0e ab 87 bc 46 fa d5 bc
       -0.018388407 -0.013804325 -0.016561057 -0.026120316
000050 59 b3 15 bc 8a 2c 34 bc 3d d6 89 bc af 39 d1 3b
       -0.009136998 -0.010996947 -0.01682579 0.0063850502
000060 3c 6b 9c bd 86 8e 16 3b 8e 53 24 3c 3e fc a5 bc
       -0.07637641 0.0022973134 0.010029687 -0.02026188
000070 f8 05 cd ba 18 06 c1 ba 37 7e aa 3c 10 4a a2 b9
       -0.0015642038 -0.0014726548 0.020812137 -0.0003095423
000080 c0 21 02 bc aa 2a 10 bd 43 48 ab bc df 91 69 bc
       -0.007942617 -0.035196938 -0.02090848 -0.01425597
000090 4c 03 1a 3b 08 15 ec bb c6 10 0f bd 49 9b e3 bc
       0.00235005 -0.0072046556 -0.034928106 -0.027784007
0000a0 1f 52 47 3d aa eb c8 bc a2 81 ad 3b ba dc 63 bb
       0.0486623 -0.024526436 0.0052949945 -0.0034769014
0000b0 2e d4 10 bc 9d 9d 2a 3c ba 58 93 bd d6 cd 76 bd
       -0.00883965 0.0104135545 -0.071946576 -0.060254894
0000c0 09 ff 94 3b ec 06 a4 3b ed 32 61 3a 44 00 f7 3b
       0.004547004 0.005005708 0.00085906574 0.0075378735
0000d0 d9 16 18 bc 66 5d 49 3c 15 59 8c bc ca 85 40 3c
       -0.009282791 0.012290334 -0.017132321 0.011750648
0000e0 14 1d 13 bd a8 f4 8a 3b f3 a2 7b bd ad cd 41 ba
       -0.035916403 0.004240591 -0.061434697 -0.0007393014
0000f0 08 a3 ff 3b 38 1c cd bc 75 c5 b7 bc a5 d4 5d 3c
       0.0078014173 -0.02503787 -0.022433022 0.013539468

bn1.running_mean f4 [64]
000000 84 52 32 bb b4 1c d7 3b b6 39 89 3b 2f 38 5f 3b
       -0.0027209828 0.006564701 0.004187788 0.0034060588
000010 42 5a f2 bc 4d 1c 05 39 de 1d 36 3c 8c bb f6 39
       -0.029584054 0.00012694411 0.011115519 0.0004706051
000020 92 52 eb ba f1 18 82 3b 5e f9 0f 3b 97 a4 e5 3b
       -0.0017953685 0.0039702584 0.0021968703 0.007008146
000030 b3 3e 9c 3b fe 37 5e 3b 08 f1 99 3b 5f 2f 4b 3b
       0.0047682165 0.0033907886 0.0046979226 0.0031003577
000040 c5 3c c7 bc 76 de 77 3b 35 59 e5 bc 7c 45 81 3b
       -0.02432097 0.0037821806 -0.027996639 0.0039450508
000050 49 e0 54 bc 3a 09 d4 ba 24 28 dc bc d4 70 47 3b
       -0.012992927 -0.0016177066 -0.02687461 0.003043224
000060 bc 59 4e bb 4a a6 a7 3b 95 69 b6 3b 8e 1f 22 3c
       -0.0031486591 0.0051162587 0.0055667856 0.009895219
000070 d0 c9 2e 3b 52 56 1d ba 4b ee dc bc 32 e6 c7 3b
       0.0026670583 -0.00060019374 -0.026969096 0.0061004395
000080 69 3d 32 3b eb 1f 4b 3c 35 e9 48 bb b2 ed 51 3a
       0.0027197248 0.012397747 -0.003065658 0.00080081366
000090 23 f4 7f 3b f7 d5 26 3c 9a be 36 3c b8 64 d8 bc
       0.003905543 0.010182849 0.011153841 -0.026415214
0000a0 74 77 dd 3b 32 9c 91 3b d9 23 a1 3a 2e 66 1d bb
       0.0067586247 0.0044436688 0.0012294009 -0.0024017203
0000b0 7e 00 01 3b 4e 5b 1e 3b f2 9e 92 3a de e9 03 bd
       0.0019684131 0.0024163309 0.0011186285 -0.032205455
0000c0 5c 0a bb 3b 6f 01 df 3a f6 ed dd bc 24 2c 86 3a
       0.005708022 0.0017013977 -0.027091008 0.0010236544
0000d0 6b 22 a4 3b 8d da 46 3b 3a 78 2e ba 5f c9 c3 bc
       0.0050089858 0.0030342669 -0.00066554884 -0.023899732
0000e0 98 fc 91 3b 3b ef bc 3b 55 72 51 3a 1f a8 6d 3b
       0.0044551603 0.005765823 0.0007989754 0.0036263538
0000f0 84 65 09 bb 2f 40 68 3c 49 99 03 3c a4 d8 ce bc
       -0.002096505 0.014175459 0.0080321515 -0.025249787

bn1.running_var f4 [64]
000000 92 8f 32 3a b5 8a 4b 3a b1 30 4b 3a 5a c2 25 3a
       0.0006811555 0.00077645044 0.0007751091 0.0006323211
000010 bb 1c f3 39 84 eb 6d 3a ad 76 1d 3a 05 99 26 3a
       0.00046369978 0.0009075927 0.0006006759 0.0006355199
000020 47 8a 00 3a 89 27 4a 3a 62 27 40 3a ad 33 4c 3a
       0.00049034174 0.00077115797 0.0007330087 0.0007789683
000030 62 7b 4f 3a b8 2a 12 3a 87 c7 0e 3a 40 aa 38 3a
       0.0007914809 0.00055758236 0.0005446602 0.0007044412
000040 56 26 02 3a c3 be e4 39 65 7c 01 3a 6c 2f 53 3a
       0.0004964819 0.00043629677 0.00049394957 0.00080560776
000050 68 13 09 3a cf 53 50 3a c9 a7 0e 3a 3e 9e 68 3a
       0.0005229027 0.0007947059 0.0005441872 0.00088736776
000060 24 12 1d 3a b7 2c 23 3a 11 24 31 3a 75 62 2e 3a
       0.0005991778 0.00062246196 0.00067573885 0.00066522445
000070 e5 df 42 3a 8a 30 61 3a 14 c0 1f 3a 9d 89 36 3a
       0.00074338756 0.0008590302 0.00060939905 0.0006963255
000080 2a a3 fd 39 46 7a 58 3a 98 fe 1b 3a e8 a8 31 3a
       0.00048377487 0.0008257966 0.0005950718 0.0006777183
000090 a8 61 5d 3a fd 3c 64 3a 2d 8f a6 39 4b 94 0f 3a
       0.0008445033 0.0008706598 0.00031768662 0.00054771145
0000a0 58 3e 6c 3a 32 b3 3f 3a 50 cf 09 3a 93 6c 2d 3a
       0.00090119755 0.0007312774 0.0005257027 0.0006615605
0000b0 ec ea 15 3a 49 db 1a 3a 27 72 12 3a 9c 30 1c 3a
       0.0005718905 0.000590731 0.0005586468 0.0005958171
0000c0 5c c0 15 3a d2 05 1a 3a 96 a0 22 3a 39 9c f2 39
       0.00057125627 0.0005875501 0.0006203739 0.00046274232
0000d0 25 2a d6 39 fa a1 52 3a 07 18 5f 3a 05 e9 db 39
       0.0004084866 0.00080350006 0.0008510355 0.00041944548
0000e0 42 27 20 3a 8a 8c 25 3a 91 ae ff 39 1a a3 3e 3a
       0.00061093655 0.00063151924 0.00048767452 0.0007272229
0000f0 4c f5 6a 3a 5a 34 20 3a 45 3b 58 3a 33 da 2b 3a
       0.00089629437 0.00061113166 0.0008248578 0.00065556465

fc2.weight f4 [32, 64]
000000 c5 78 a3 3c ee 37 00 ba f3 e5 2e 3d c2 77 58 ba
       0.019955048 -0.00048911467 0.042699765 -0.00082575914
000010 42 54 a0 bc da 9d bc bc 2f 53 d0 bb af e7 1b 3b
       -0.019571427 -0.023024488 -0.0063575725 0.0023789217
000020 ac 56 54 3b a2 16 e6 bc 30 c7 da 3b ca 11 06 bd
       0.0032400293 -0.028086964 0.006676577 -0.03273181
000030 f4 d4 07 bd 83 ce a5 bb 25 48 30 bd 64 62 85 3c
       -0.033162072 -0.0050600185 -0.043037552 0.016282268
000040 1c 69 b3 bc b0 22 57 bc 24 bf 07 bd 91 35 80 3c
       -0.021900706 -0.013130829 -0.03314127 0.015650542
000050 15 b9 66 bc 60 ac e0 ba 6c 1c 9a bb c3 e0 0a bd
       -0.014082213 -0.0017141216 -0.004703095 -0.033905756
000060 ad 1d 32 bc 41 d2 18 3d 1f 5d 6f bc 66 c7 8b 3b
       -0.010871333 0.03730989 -0.014609604 0.0042657135
000070 94 31 1d bd f6 95 66 3c 70 87 87 bc 2d be e3 3c
       -0.03837736 0.014073839 -0.016544074 0.027800644
000080 b4 bd 20 3d 6a 2e aa 3c c0 eb ae 3c 3d 78 09 3d
       0.039243415 0.020774085 0.021352649 0.033561934
000090 4b 30 11 3b 1f bb c5 3c fc e5 40 bd 92 fe 32 bc
       0.002215403 0.024137078 -0.04709433 -0.010924952
0000a0 85 99 ef bc b6 87 d5 3c d7 5c 49 bc 4c cc a3 3b
       -0.029248009 0.026065689 -0.012290201 0.0049987193
0000b0 97 d5 86 3c da 5e 15 3d 0e 4a 94 bc d8 b4 a5 bc
       0.01645927 0.03646741 -0.018101718 -0.020227835
0000c0 fd 91 58 3b d6 42 30 bd 6c ae c1 bc 4a e7 7e 3c
       0.0033046 -0.04303249 -0.023642741 0.015558073
0000d0 fe 69 05 3d e3 d2 e2 3c b1 55 90 3b 8c f0 09 bd
       0.032571785 0.02768845 0.0044047465 -0.03367667
0000e0 cc f6 28 3b f2 b0 9f bc 36 8c 0d bd 4e 39 16 3d
       0.0025781868 -0.019493554 -0.034557544 0.036675744
0000f0 81 09 bd bb 5a 5d 95 bb 61 85 ad 3a e3 a7 12 bd
       -0.005768955 -0.0045582475 0.0013238603 -0.03580464
000100 fb 21 b9 ba fd 77 34 bc 58 05 c3 3c 09 67 4a 3d
       -0.0014124507 -0.011014936 0.023806259 0.04941467
000110 8b ec 01 3c dd a6 16 bb ea 0f a7 bc 5c 09 8c 3c
       0.007929931 -0.0022987642 -0.02039333 0.017094307
000120 a8 e4 c9 3b 36 f7 4a 3b 15 be 2d 3d 4e 7a cb 3c
       0.006161291 0.0030970103 0.042417604 0.024838593
000130 aa 19 ed bc 0a 3b 94 3c fb 1a aa bc 28 85 3b 3d
       -0.028942902 0.018094558 -0.020764818 0.045781285
000140 27 13 a0 bc 05 c4 37 3d e3 f7 95 bc 19 b2 c2 bb
       -0.019540383 0.044864673 -0.018306678 -0.005941641
000150 22 6a 45 3d 82 a5 10 3d 17 df 0e bb 4f ae 7e bc
       0.04819692 0.03531409 -0.0021800452 -0.015544488
000160 d8 93 0e 3d 0b c3 94 3b 76 2f ac bc 76 e6 1c bc
       0.034808964 0.0045398525 -0.021018725 -0.009576431
000170 57 4b cf bb ff 87 cd 3c 6e c6 1e 3b 67 9b 2b bc
       -0.00632612 0.025089262 0.002422716 -0.0104740625
000180 1e 6b eb bb 04 51 b6 bc 3e 7f 04 bb 13 5c be bc
       -0.0071844 -0.022255428 -0.0020217444 -0.023237264
000190 1b 9d e4 3c 4a 97 c6 bc 76 90 b5 bc 9a e3 20 bb
       0.027906945 -0.024242062 -0.02216361 -0.0024549724
0001a0 37 43 79 bb 3b bb 7a 3c 57 cc f9 bc 70 9d 42 3d
       -0.0038034448 0.015303428 -0.030492945 0.047513425
0001b0 e3 6e a7 3c 7b b0 2b 3c 99 74 93 3c 61 fb e5 3a
       0.020438617 0.010479088 0.017999934 0.001754623
0001c0 75 3d c1 bc 51 11 01 bc f2 b8 b3 3c e5 ac fd 3c
       -0.023588875 -0.007877664 0.021938775 0.030966232
0001d0 43 30 3e bb 1a c6 a5 bc 22 e6 16 3d ac 86 7c 3a
       -0.0029020465 -0.020236064 0.036840566 0.0009633105
0001e0 2f 66 9e bc d3 92 f7 3b fc 4c 15 bd fd 12 f9 bb
       -0.019335834 0.0075553446 -0.03645037 -0.0076011405
0001f0 86 26 a1 3c 2a 08 58 bc 74 79 3d bc b2 87 50 3a
       0.01967169 -0.01318554 -0.011564601 0.00079547905
000200 f4 1a 90 3b bd eb da 3c 53 75 2d 3d d5 28 1e bc
       0.0043977443 0.026723737 0.042348217 -0.00965329
000210 f7 a2 8b bc b6 e4 84 bc e4 a1 50 bb f6 c3 9a bc
       -0.017045481 -0.01622234 -0.0031834776 -0.01889227
000220 ec 14 f1 bb ae 95 e9 bc 5c 9f d4 bc 69 c7 c0 bc
       -0.0073572304 -0.028513756 -0.025954895 -0.023532586
000230 16 24 8c bc 34 f3 68 bc 74 01 58 bb db 9b 4a bc
       -0.01710705 -0.01421814 -0.003295985 -0.01236626
000240 e4 c6 2f 3c 25 72 7b bc 90 ae c9 bb 08 29 1f bc
       0.010728572 -0.015347038 -0.0061548427 -0.009714372
000250 94 45 84 bc bc ca 97 bc 58 f9 f6 b9 75 af eb bc
       -0.016146459 -0.018529288 -0.00047106552 -0.028770188
000260 66 76 b8 b8 77 9b 0c 3d 19 55 87 3c e6 a8 57 bc
       -8.795857e-05 0.03432795 0.01652007 -0.013162827
000270 5a df 88 bb 31 90 93 bc f0 33 f8 bc 27 86 15 3d
       -0.004177016 -0.018013092 -0.030298203 0.03650489
000280 c6 35 a3 3c 5a dc 0d 3d f6 64 c5 bc bd bf f0 3c
       0.019923102 0.03463397 -0.024095993 0.029388303
000290 3f c7 fc bb 2c 99 2f 3b b0 47 21 3c b8 68 82 bc
       -0.0077141817 0.0026794178 0.009843752 -0.015919074
0002a0 a0 ba 19 bd 0b c5 33 3d af 97 8f bb 7e a4 c2 bc
       -0.037531495 0.043889087 -0.0043820958 -0.023760077
0002b0 78 15 99 bc c4 45 1b bc 20 5c 7e bc 8e 25 46 bc
       -0.018686995 -0.009477083 -0.015524894 -0.012093915
0002c0 34 eb 4a bc 64 63 da bb aa b4 35 bc a9 ae 32 bc
       -0.012385178 -0.0066646803 -0.011090437 -0.0109059
0002d0 33 45 64 3d ad c3 5d 3d 2a e8 69 bc 14 93 02 bd
       0.055730056 0.05414169 -0.014276544 -0.031878546
0002e0 eb d3 ad bb c5 7f c6 bb 2f d5 02 3c 4f a3 83 3d
       -0.0053048036 -0.006057712 0.007985397 0.06427633
0002f0 0c 71 60 bb 99 e2 a5 3c e7 3b f2 3b 28 81 93 3b
       -0.0034247069 0.020249652 0.007392395 0.0045014806
000300 ca 51 e8 b9 71 11 2f 3c a7 93 aa bb 1b 6c 8d bb
       -0.00044311426 0.010685311 -0.00520559 -0.0043158657
000310 ef a2 09 bc 51 d5 45 bc fe f2 55 bc 5f b4 09 bd
       -0.008400663 -0.012074784 -0.013058422 -0.03361928
000320 15 fc 58 3d 0c 47 50 3d 52 15 9c bc ba d0 3a 3c
       0.05297478 0.050849006 -0.019053135 0.011402303
000330 99 f8 89 bc 15 cb 00 3c df af 72 bc 6c d0 54 ba
       -0.016842173 0.0078609185 -0.014812439 -0.00081182155
000340 e4 79 43 bc 96 31 1d bc 77 a4 36 3a c3 ca 71 bb
       -0.011930916 -0.009594342 0.0006967256 -0.0036894537
000350 93 79 40 bc 7b b8 79 bc 59 65 89 3c eb 19 d1 3c
       -0.011747736 -0.0152417375 0.01677196 0.025525054
000360 70 ff 01 3a ce ca 88 bc 9e 64 bb 3c 04 94 ce bc
       0.00049590226 -0.016698267 0.022875126 -0.025217064
000370 70 54 ee 3c 06 b8 64 bb 7d 6b be bb 55 9a 95 bc
       0.029092997 -0.0034899726 -0.0058111534 -0.018262068
000380 a1 a6 58 bb 3a 8e 97 bb 7e 71 8b bc 52 4d 08 3b
       -0.0033058303 -0.004625109 -0.01702189 0.002079804
000390 6e c0 2f 3d 11 81 d4 3a 9e 32 d3 bc 26 75 d5 3c
       0.042908125 0.0016212781 -0.025780972 0.026056837
0003a0 5d 39 60 3d a5 46 fd bb 15 67 98 bc 6d c8 a8 bc
       0.054742206 -0.0077293688 -0.01860384 -0.020603383
0003b0 4b 71 ef bc 49 70 e7 bc a6 80 be 3c 5a 14 f7 3b
       -0.029228827 -0.028251784 0.023254704 0.007540268
0003c0 34 27 87 bc e5 19 42 3c b0 2b a8 bb 67 27 8f bc
       -0.016498186 0.011846994 -0.005132161 -0.017474843
0003d0 5f 5a 4c bc ba db 82 bc c2 92 94 ba 29 bb 9a 3b
       -0.012472718 -0.015973914 -0.0011335241 0.0047220183
0003e0 bd fb b7 bc 60 2d 64 3d 17 68 b6 bc f3 8c 04 bd
       -0.022458905 0.055707335 -0.02226643 -0.032360982
0003f0 02 6b 0b 3d dc a0 d9 bb f7 92 67 bc 36 1e 25 bc
       0.034037597 -0.0066414904 -0.01413416 -0.010078004

fc2.bias f4 [32]
000000 b4 f8 14 35 f7 ce ac 34 ba 9f de b4 49 3e 6f b4
       5.5496207e-07 3.2188083e-07 -4.146694e-07 -2.2281269e-07
000010 5a 36 bc 32 e8 95 b4 b4 fa 65 f2 b3 32 7a 2f b4
       2.1910797e-08 -3.3636684e-07 -1.12875526e-07 -1.63426e-07
000020 ba e5 13 34 44 7f d8 b2 96 6c 32 34 17 04 05 b3
       1.3774016e-07 -2.5203583e-08 1.6617045e-07 -3.0970195e-08
000030 92 c5 34 34 29 04 8f b4 c8 a0 a8 b4 ef c3 a3 b3
       1.6835682e-07 -2.6638853e-07 -3.1409422e-07 -7.625919e-08
000040 b5 6c 2b b4 76 75 0c b5 62 f0 86 b4 bc 62 cd 35
       -1.5965163e-07 -5.232499e-07 -2.5134347e-07 1.5302426e-06
000050 7b 69 8a b2 8c 5d 70 33 b0 5e 37 32 e8 63 96 34
       -1.6113281e-08 5.5964435e-08 1.0673531e-08 2.801237e-07
000060 02 a7 83 b4 7a ef 7f 35 c9 ed 3f b5 40 81 94 b2
       -2.4522166e-07 9.5343387e-07 -7.149907e-07 -1.7288244e-08
000070 87 90 8c b4 8e 30 90 b3 58 28 52 b4 b4 9c 43 34
       -2.618219e-07 -6.7143546e-08 -1.9572451e-07 1.8217798e-07

bn2.weight f4 [32]
000000 90 ca 09 3f a2 b3 10 3f e6 9b 1c 3f b7 6a 04 3f
       0.5382471 0.565241 0.6117538 0.51725334
000010 1d a6 08 3f 6e c4 33 3f 12 2e 23 3f 5b b8 1a 3f
       0.5337847 0.702216 0.6374217 0.60437554
000020 e3 e4 1a 3f 49 9e 0b 3f 78 00 27 3f 87 22 22 3f
       0.60505503 0.545384 0.6523509 0.63333935
000030 34 5d 20 3f 00 37 03 3f e3 e9 22 3f c7 d4 0e 3f
       0.62642217 0.512558 0.6363813 0.5579342
000040 54 71 13 3f 4c d6 2b 3f 7c 92 19 3f ac 27 23 3f
       0.575948 0.67123866 0.5998914 0.6373241
000050 a5 6f 0d 3f f3 40 23 3f 4d 12 11 3f 3f 4e 23 3f
       0.5524848 0.6377098 0.5666855 0.6379127
000060 23 11 21 3f d1 d1 11 3f d4 f3 2b 3f be 9a 19 3f
       0.62916774 0.5696078 0.6716893 0.6000174
000070 5d e5 16 3f 38 e5 25 3f 43 61 21 3f 84 0d 2c 3f
       0.5894373 0.64802885 0.63039035 0.67208123

bn2.bias f4 [32]
000000 1b 47 b3 3e 35 a6 bc 3e 55 45 98 3e ee ae 99 3e
       0.35015187 0.36845556 0.29740396 0.30016273
000010 14 e7 95 3e ee 7d 8c 3e 9a ae a2 3e c8 13 9d 3e
       0.2927786 0.27439827 0.31773835 0.30679154
000020 80 a2 af 3e 09 7e ca 3e b0 26 77 3e b4 ee 88 3e
       0.34303665 0.39549282 0.24135852 0.26744616
000030 e2 15 8a 3e ba 8c ba 3e 38 62 a7 3e 15 5b 89 3e
       0.2696982 0.3643549 0.32692122 0.26827303
000040 41 b8 aa 3e 35 77 b1 3e d1 4d 9e 3e 4c 0f 8c 3e
       0.333437 0.3466126 0.30918744 0.2735542
000050 1e 0c 7c 3e 23 70 9e 3e 08 01 97 3e 89 28 81 3e
       0.24613997 0.3094493 0.29492974 0.25226238
000060 a3 95 8d 3e fd 56 a4 3e ec c7 a6 3e 5c a2 a2 3e
       0.27653226 0.32097617 0.32574403 0.31764495
000070 39 82 c3 3e ef 5e 89 3e 3e 91 ae 3e 0a 47 98 3e
       0.3818529 0.2683024 0.34095186 0.29741699

bn2.running_mean f4 [32]
000000 82 d9 41 bb 8b 96 dc 3b 57 7c 87 bb 76 0e 35 bb
       -0.0029579108 0.0067318133 -0.0041346955 -0.0027627028
000010 a9 fb 22 bc 4a 88 dd ba 09 77 6b bb ed 3f 45 bb
       -0.009947696 -0.0016901579 -0.0035929105 -0.0030097917
000020 0e 77 39 bc 2d a1 e4 bb c5 74 42 3b bb 3b 9d b9
       -0.011319889 -0.0069772215 0.002967165 -0.00029989876
000030 c8 ca e2 ba 2b 04 1c bc 64 f4 23 bb 65 48 03 3c
       -0.0017302865 -0.009522478 -0.0025017494 0.008012866
000040 0c 6e 02 bc d0 e7 33 bc f4 95 dd bb d2 64 fa 3a
       -0.0079608075 -0.010980561 -0.0067622606 0.0019103533
000050 36 05 47 bc 2e ee 0d 3b 49 bd 87 3b 4a 5a 07 bc
       -0.0121472385 0.0021656859 0.0041424376 -0.008261273
000060 6d b1 a0 3b 36 c9 c0 3b ab 09 0b 3c 60 57 0b 3c
       0.0049039633 0.005883361 0.008486192 0.008504719
000070 e7 dc 8b 3b 58 f4 55 bb 1f 1c a8 3b ae 5e f2 3a
       0.004268277 -0.003264686 0.0051303054 0.0018491352

bn2.running_var f4 [32]
000000 c8 a9 ef 3a ae b2 fa 3a 93 fb 03 3b 3e 76 d4 3a
       0.0018284852 0.0019126737 0.0020138964 0.0016209555
000010 d7 cc c8 3a 4a 7a 15 3b 80 f2 1f 3b 13 40 e6 3a
       0.0015319836 0.0022808486 0.0024406016 0.0017566703
000020 f8 7e e2 3a e3 98 d5 3a b1 d9 12 3b f6 50 1f 3b
       0.0017280271 0.0016296174 0.0022407586 0.002430973
000030 1e a2 16 3b 43 dd b2 3a 20 cc 0d 3b 1b d5 05 3b
       0.0022984813 0.0013646263 0.002163656 0.002042121
000040 ec c1 d7 3a c3 7b e4 3a 50 a3 17 3b 53 19 0d 3b
       0.0016460991 0.0017431903 0.0023138113 0.0021529987
000050 2f df bc 3a 81 09 1c 3b 2d 95 fd 3a 2f 36 12 3b
       0.0014409776 0.0023809376 0.0019346826 0.0022310128
000060 78 41 0d 3b 2f 89 0a 3b 3a 9b 21 3b 4f 31 18 3b
       0.0021553915 0.0021138897 0.0024659173 0.002322275
000070 a3 5a f2 3a a7 e6 19 3b 73 f0 17 3b 43 8c 06 3b
       0.0018490147 0.0023483427 0.002318409 0.002053038

fc3.weight f4 [5, 32]
000000 fb 19 4a 3e f3 6e c2 be f3 d1 f3 3e 6c 8d 83 be
       0.19736473 -0.37975273 0.47621116 -0.25693834
000010 43 7f d7 be 8f f1 d0 bd c9 56 90 be d8 24 3a 3e
       -0.4208928 -0.10202324 -0.28191212 0.18178117
000020 b0 f0 b4 be 57 fb 0f bd dc cc 3a be 7c 53 3f be
       -0.3533988 -0.035151806 -0.1824221 -0.1868419
000030 6b 76 04 3f 8c 89 8d 3d 0e 48 09 bc 73 46 89 be
       0.5174319 0.069110006 -0.008378996 -0.2681156
000040 4d 10 c9 be 77 cd 43 3e 40 10 94 be 59 a1 0f 3f
       -0.3927025 0.19121347 -0.28918648 0.5610557
000050 2b df c9 be aa 83 80 be 91 03 9d be ec 2f ab 3b
       -0.39428076 -0.25100452 -0.30666783 0.0052242186
000060 b4 1f 0c 3f d5 1f ac be fa 90 95 be 6b 04 83 be
       0.54735875 -0.33618036 -0.2921217 -0.25589308
000070 64 14 87 be 46 92 a6 39 07 2b a2 be 8f 03 4f be
       -0.26382744 0.0003177097 -0.31673452 -0.20216201
000080 17 8c ca be 0f 40 09 be 73 a2 6e be ef 24 09 be
       -0.39560005 -0.13403343 -0.23304157 -0.13392995
000090 39 cf 52 3d de e2 93 be e0 04 8d be 26 53 c6 be
       0.051467154 -0.28884023 -0.27542782 -0.38735312
0000a0 31 fb 83 be 9a 27 dd be c9 b0 72 be 65 00 e9 3e
       -0.2577758 -0.43194276 -0.2370025 0.45508114
0000b0 1a 9f 33 be aa 6d c3 be 1f f2 c8 3e 03 de 72 be
       -0.17541161 -0.38169605 0.39247224 -0.23717503
0000c0 b3 14 3c 3e 6f f3 ae be f9 17 aa be 9d 1f f0 bd
       0.18367271 -0.341701 -0.33221415 -0.1172478
0000d0 6a cf 2c 3e 0e 60 81 be 17 26 2b be b3 29 ea 3e
       0.16875997 -0.25268596 -0.16713749 0.4573494
0000e0 d8 55 46 bd 68 e2 2e be 04 2a a3 be 7e 7a a7 be
       -0.04842171 -0.17078555 -0.31867993 -0.32710642
0000f0 89 f6 bc be 5c 26 ea 3e 87 71 8f be 25 63 9c be
       -0.3690684 0.4573239 -0.28016302 -0.3054439
000100 b5 d9 d3 bd 99 dc bc 3e f1 32 94 be 5c 2a 64 be
       -0.10344259 0.36887053 -0.28945115 -0.22281784
000110 8b 0f c0 be 2c dd 96 be a2 ee 47 be 46 6e 94 be
       -0.37511858 -0.29465616 -0.19524625 -0.28990382
000120 01 90 8f 3e 82 e1 d9 bd fc 72 80 be 30 69 90 be
       0.28039554 -0.10638715 -0.25087726 -0.28205252
000130 22 49 94 be 38 d2 9d 3c 2d b3 bb be e0 a4 e1 3e
       -0.28962046 0.01926528 -0.36660138 0.44071102
000140 61 ae 83 3d 8d de d4 be f9 7e b0 be 6d f0 87 be
       0.064297445 -0.41576043 -0.34471872 -0.26550618
000150 34 94 a7 be 80 ec 08 be 3d a3 da 3e d5 d9 8b be
       -0.32730258 -0.13371468 0.42702666 -0.2731463
000160 58 7c 90 be c4 95 d2 3e 85 a7 2e be f0 3a 74 be
       -0.28219867 0.41129887 -0.17056091 -0.23850608
000170 75 7b b8 3e 29 24 8f be 29 5d eb 3e 3a a5 b0 be
       0.3603169 -0.27957276 0.45969513 -0.34501058
000180 21 06 41 bd 13 9b c4 be 9b a5 80 3c 11 41 ad be
       -0.047124986 -0.38399562 0.015703967 -0.33838704
000190 e3 a4 49 3e c9 0c 19 3f 6d db f5 bd 55 b1 8c 3e
       0.19691806 0.59785134 -0.12004743 0.27479044
0001a0 8b 62 eb bd f5 57 01 bf d4 d1 0b 3f 89 64 97 be
       -0.11493405 -0.50524837 0.5461705 -0.2956889
0001b0 69 54 37 bd 0a b0 b7 be a2 1f d7 be 39 92 75 be
       -0.044758234 -0.35876495 -0.4201632 -0.23981561
0001c0 7b 9d 73 be dd 16 f5 be 84 81 dd 3d 74 ff 09 be
       -0.23790543 -0.47869006 0.10815719 -0.13476354
0001d0 7f 01 38 3e bc 1e 22 be 0d bb 70 be 73 9c 93 be
       0.1796932 -0.15832037 -0.23508854 -0.288303
0001e0 aa 19 35 be c7 b7 90 be 9d a3 8f bd 72 50 e5 3c
       -0.17685571 -0.2826521 -0.07013629 0.02799246
0001f0 9c 65 c0 be 28 ed ad be c5 f6 a7 be 73 6c 06 3f
       -0.37577522 -0.33969998 -0.32805458 0.5250923
000200 7b e6 de be aa d0 d6 bd ac a2 9c be 75 1d b0 3e
       -0.43535218 -0.10489018 -0.3059286 0.34397474
000210 48 d0 ff bd ff b0 cb bd 14 c8 05 3f af 12 b4 be
       -0.12490898 -0.09945869 0.5225842 -0.35170504
000220 8c 35 e7 be 31 84 c9 3d 20 54 2c be 32 2f 66 be
       -0.4515804 0.09839667 -0.16828966 -0.22478941
000230 e5 6c 8a be e4 56 ad be 50 5f 73 be c7 6b ad bd
       -0.27036205 -0.33855355 -0.23766828 -0.084678225
000240 00 87 e1 be 44 6b a9 3d 06 35 c4 3e ee 3c 78 be
       -0.4404831 0.082724124 0.38321704 -0.24241993
000250 e9 06 64 be b1 63 0e 3f 03 99 6d be ca f8 95 be
       -0.22268261 0.55620867 -0.232029 -0.29291373
000260 9d 9c 71 be a2 20 63 be dd 91 16 3f c5 87 fd 3e
       -0.235949 -0.22180417 0.5881632 0.49517646
000270 c9 11 92 3d 88 35 95 be 1a af eb bd 5c aa a2 3d
       0.071322985 -0.29142404 -0.11508007 0.0794265

fc3.bias f4 [5]
000000 48 de 8e be 0e 9c 65 be ec 5c 8f be 8f 99 2a be
       -0.27903962 -0.22422811 -0.2800058 -0.1666014
000010 ce 52 8c be
       -0.27406925
