Seminario.Api/classifier_tonos.onnx (onnx, 43648 bytes, 14 tensors)

fc1.weight f4 [64, 124]
0	0xbda34a99	-0.07973213
1	0xbd67748d	-0.056507636
2	0xbc07995f	-0.008276313
3	0xbc0b802a	-0.008514443
4	0xbc6975dd	-0.014249292
5	0xbc2cf386	-0.010556107
6	0xbcf3421d	-0.029694611
7	0xbd2789e9	-0.040903006
8	0x3caf0702	0.021365646
9	0xbcc4935f	-0.023996053
10	0xbd2795ab	-0.04091422
11	0x3c52ebb5	0.01287358
12	0x3c89b843	0.016811496
13	0xbb79810a	-0.0038071298
14	0x3cd0f4b9	0.025507318
15	0x3b27984e	0.0025572958
16	0xb91f4570	-0.00015189289
17	0xbcfd34c6	-0.030908953
18	0x3cb0e389	0.021592872
19	0x3b4c4bfc	0.003117322
20	0x3a7e8dcc	0.00097104604
21	0xbb8dce06	-0.0043275384
22	0x3bf7e6d6	0.0075653596
23	0xb9104578	-0.0001375879
24	0x3a9e0b42	0.0012057798
25	0xbc111ab6	-0.008856466
26	0x3b67237a	0.0035268948
27	0xbc22accd	-0.009928894
28	0xbac14a30	-0.0014746841
29	0x3c717806	0.0147380885
30	0x3b90e13a	0.0044213803
31	0xba9a9092	-0.0011792353
32	0x3c150258	0.009094797
33	0x3b9865d2	0.00465081
34	0x3c49ce80	0.0123173
35	0xbbccaa0f	-0.0062458585
36	0xba659938	-0.0008758488
37	0xbb0ce1ac	-0.0021496816
38	0x3c40879f	0.011751085
39	0xbca26101	-0.019821646
40	0xbbd926bf	-0.0066269333
41	0xbbe52bb4	-0.006993735
42	0xbc71f1b9	-0.014767104
43	0x3c1e0dda	0.009646857
44	0xbb90b5bf	-0.004416197
45	0x3ac6a341	0.0015154855
46	0xbcf622b9	-0.030045854
47	0x3cb4018b	0.021973392
48	0x3b15b5b8	0.0022843909
49	0xbaeef054	-0.0018229582
50	0xbba5c3fa	-0.0050587626
51	0xb7aa4f70	-2.030257e-05
52	0xbb80b974	-0.0039283577
53	0x3bb0178e	0.0053739017
54	0xbb67bded	-0.0035361007
55	0x3c1995b8	0.009374075
56	0x3c3424e8	0.010995127
57	0x3b7c39ae	0.0038486528
58	0x3c8f90a7	0.01752503
59	0x3a9b6662	0.0011856074
60	0xbc5ce431	-0.013482139
61	0x3b7ec8c2	0.0038876985
62	0xbbcb8b66	-0.006211686
63	0xba52343d	-0.00080186484
64	0xba819406	-0.0009886033
65	0xb9221304	-0.00015456608
66	0xba01f64c	-0.00049576606
67	0xbb774a66	-0.0037733554
68	0xbb8158fa	-0.0039473744
69	0x3ab77c43	0.0013998825
70	0x3c148b49	0.009066411
71	0xbc3c7e66	-0.011504745
72	0x3b8d0259	0.0043032584
73	0x3c116051	0.008873061
74	0xbc3057f6	-0.010763159
75	0x3b0aca86	0.0021177842
76	0x3be58eba	0.0070055397
77	0xbb46f070	-0.0030355714
78	0xbb8157d2	-0.0039472366
79	0xbb813439	-0.003942993
80	0x3b8776b9	0.004134026
81	0xba51994c	-0.00079955603
82	0x3aec08bf	0.0018007978
83	0xbbb152c7	-0.005411479
84	0x3bc6af8e	0.006063408
85	0x3be411cf	0.0069601308
86	0x3be6bdf8	0.007041689
87	0x3c42e247	0.011894769
88	0xbbbf6a00	-0.0058414936
89	0x3b6191bc	0.003441914
90	0x3b9fb070	0.004873328
91	0xbbb9054f	-0.005646385
92	0x3bd16ee7	0.0063913944
93	0xb9e61b92	-0.0004388956
94	0xbc327390	-0.01089181
95	0x3c25e2c5	0.010124867
96	0x3bf68104	0.007522704
97	0x361c6a00	2.3307512e-06
98	0x3be4352a	0.0069643455
99	0xbc4fc4b4	-0.012681175
100	0x3d0720c4	0.032990232
101	0xbbd24db1	-0.006417953
102	0x3c00ec9e	0.007868914
103	0x3bf52af5	0.0074819275
104	0xbb904db6	-0.004403795
105	0xbb902a8e	-0.004399604
106	0x39fd13a8	0.00048270565
107	0x3c1974ed	0.009366256
108	0x3b57837a	0.0032884763
109	0xbc092ce0	-0.008372515
110	0x39810a42	0.0002461244
111	0xba51df0d	-0.00080059544
112	0x3c4fefb6	0.012691429
113	0xbc72235b	-0.014778937
114	0xbd79b3f1	-0.06096262
115	0x3c9e8077	0.019348366
116	0x3b49e3b1	0.003080588
117	0xbbe651a1	-0.007028774
118	0x3c019172	0.007908212
119	0xbc84ad7e	-0.016196009
120	0xbb864e4d	-0.0040986896
121	0xbcb6f5b4	-0.022333957
122	0x3c52405b	0.012832726
123	0x3afbd782	0.0019214007
124	0xbd4fa689	-0.05069593
125	0xb8d30f80	-0.00010064151
126	0xbc3161d2	-0.010826545
127	0xbb6d4371	-0.0036203528
128	0xbc1609cd	-0.00915761
129	0x39b7794c	0.00034994853
130	0xbbe24699	-0.0069053886
131	0xbb7c3c56	-0.0038488111
132	0xbd5f7acd	-0.05456047
133	0xbc112d2b	-0.008860867
134	0xbb7d0a8e	-0.0038611027
135	0xbae8c5f7	-0.0017759193
136	0xbc4a040e	-0.012330068
137	0xbbfd61a6	-0.007732588
138	0xbc92b993	-0.017910754
139	0xbcda230e	-0.026628044
140	0x3b607573	0.0034249693
141	0xbc17eb24	-0.0092723705
142	0xbc0f02fd	-0.00872874
143	0x3cd795d4	0.02631656
144	0xbbaf1065	-0.0053425306
145	0xbc4df554	-0.012570698
146	0xbba652c4	-0.0050757844
147	0xbbe8d48d	-0.007105416
148	0x3b1e5cfa	0.0024164305
149	0x3b9c4b30	0.0047697052
150	0xbb03edec	-0.0020130826
151	0xbbc269d0	-0.005933024
152	0x3b3151fd	0.0027056925
153	0xb85800f8	-5.1499315e-05
154	0x3b97aa35	0.0046284446
155	0x3bbdc036	0.0057907356
156	0xb9564350	-0.00020433706
157	0xba2bf9c0	-0.0006560348
158	0x3c39d653	0.011342603
159	0xbbc7a4c0	-0.006092638
160	0xbbb458d8	-0.005503755
161	0x3b97d3be	0.004633396
162	0x3c4b6297	0.012413642
163	0xba8dc8f2	-0.0010817333
164	0x3b49bab4	0.003078145
165	0xbaaea7b1	-0.0013325122
166	0xbb88ce81	-0.004175008
167	0xbc4b3545	-0.012402837
168	0x3ca78cee	0.020452943
169	0xbb8f65d5	-0.004376153
170	0xbcf5cf08	-0.030005947
171	0xbc84f1f4	-0.016228653
172	0x3cee3417	0.029077573
173	0x3b7b8a76	0.003838209
174	0x3bd3ae55	0.006459991
175	0xbbd861ac	-0.0066034403
176	0xb990886c	-0.00027567463
177	0x3a27d9f9	0.0006403025
178	0x3be95db7	0.0071217674
179	0x3ba23212	0.0049498165
180	0x3b965969	0.0045882952
181	0x3b1d3c5d	0.0023992278
182	0xba4aacfc	-0.0007731465
183	0xbaf7483a	-0.001886613
184	0xb9011c00	-0.0001231283
185	0x3bb96e5b	0.0056589074
186	0x3b60144a	0.003419178
187	0xbacd30af	-0.0015654768
188	0x3b0c71a0	0.002143003
189	0x3bb37b78	0.005477365
190	0xbba27922	-0.004958288
191	0xbc051799	-0.008123302
192	0x390cc968	0.0001342647
193	0xbb946a05	-0.00452924
194	0x3c11231c	0.008858468
195	0xbb5209e9	-0.0032049364
196	0xbbb89438	-0.0056329034
197	0x39f836fd	0.00047343216
198	0x3b0f0d14	0.0021827864
199	0x3ba320e1	0.0049782847
200	0x3b1b1d8c	0.0023668734
201	0xbc74e60d	-0.0149474265
202	0x390d8a60	0.00013498357
203	0x38f605f0	0.000117313
204	0x3c00e7d9	0.007867777
205	0x3c1b6c90	0.009486333
206	0xbc80736f	-0.015680043
207	0xbb2f72a8	-0.0026771221
208	0x3c0d3206	0.008617884
209	0x3c670623	0.014100584
210	0xbb578ebd	-0.0032891475
211	0xba97bc43	-0.0011576492
212	0xbbe422f0	-0.0069621727
213	0xbbd65a69	-0.0065415394
214	0x3bb243f7	0.005440231
215	0x3b5d720e	0.0033789906
216	0x3a8a76cc	0.0010563969
217	0xbb0fcc2b	-0.0021941762
218	0xba675aba	-0.000882547
219	0xba0a59aa	-0.0005277643
220	0xbb70da7c	-0.003675132
221	0x3c725f43	0.01479322
222	0x3c0433aa	0.008068958
223	0xbc306625	-0.010766541
224	0xbbb731f8	-0.0055906735
225	0x3d0cc049	0.034363065
226	0x3baaba1d	0.0052101747
227	0x3b457d40	0.003013447
228	0x3c3dd78c	0.011587035
229	0x3ba67878	0.005080279
230	0xbb9b6994	-0.0047428105
231	0xbbff5a20	-0.007792726
232	0xbb35caca	-0.002773928
233	0x39637df6	0.00021695331
234	0x3aea2cfd	0.0017866191
235	0xbaccf96c	-0.0015638298
236	0x3b5cce9b	0.0033692482
237	0x3cf7104a	0.030159134
238	0xbd3559dd	-0.044275153
239	0xbd7020f6	-0.058625184
240	0x3c172864	0.0092259385
241	0x3cce969b	0.025218299
242	0x3c89c3c4	0.016816981
243	0x3ca46c9d	0.020071322
244	0xbb1628da	-0.0022912533
245	0xbc464f9d	-0.012103942
246	0xbc8cda34	-0.017193891
247	0x3cca6341	0.024705531
248	0x3ca5ec8e	0.0202544
249	0xbd49ade5	-0.049238104
250	0x3c22f114	0.009945173
251	0xba9786e9	-0.0011560592
252	0x3c1de68c	0.009637486
253	0x3bf44086	0.007453981
254	0x3d938caf	0.07204568
255	0x3c13fa25	0.009031807

fc1.bias f4 [64]
0	0x335ddff9	5.1659274e-08
1	0xb437ab04	-1.7105418e-07
2	0xb234d340	-1.0525412e-08
3	0x342bee94	1.601241e-07
4	0x34155eca	1.391119e-07
5	0xb3f7651a	-1.1520224e-07
6	0xb419f478	-1.4338173e-07
7	0x3483a15c	2.4518056e-07
8	0xb3ca73f9	-9.427453e-08
9	0x300446c0	4.812186e-10
10	0x3332f9fb	4.167121e-08
11	0xb46bce57	-2.1961147e-07
12	0x320218d8	7.572645e-09
13	0x354e7f22	7.692598e-07
14	0xb3d6cfd6	-1.0002957e-07
15	0xb446fbfe	-1.8531861e-07
16	0xb3094d55	-3.196813e-08
17	0xb4465cfe	-1.8474017e-07
18	0xb304dfbf	-3.093714e-08
19	0xb2924cda	-1.7031585e-08
20	0x33924128	6.810507e-08
21	0x324504f0	1.1468032e-08
22	0x34a244fd	3.0225047e-07
23	0xb2cb7258	-2.3684308e-08
24	0xb47ef5aa	-2.3744965e-07
25	0xb44fc101	-1.9348592e-07
26	0xb41b8b02	-1.448607e-07
27	0x3482da7c	2.4373355e-07
28	0x33a6c866	7.7664296e-08
29	0x35248c88	6.129926e-07
30	0x329b4f05	1.8080309e-08
31	0xb4603287	-2.0880007e-07
32	0x3398dc90	7.118172e-08
33	0xb40aabcf	-1.2914755e-07
34	0xb43986ac	-1.7278461e-07
35	0x34e4972e	4.2578307e-07
36	0x337f13b8	5.938975e-08
37	0xb3e4f076	-1.0660817e-07
38	0x33f68a68	1.14804436e-07
39	0xb405fb0e	-1.2477923e-07
40	0xb2c48bbd	-2.2880949e-08
41	0x341a0162	1.4342871e-07
42	0xb24af74e	-1.1814178e-08
43	0x34587e3a	2.0162489e-07
44	0x33be408c	8.8593055e-08
45	0x3544dcc7	7.3336963e-07
46	0xb48472c7	-2.4670427e-07
47	0xb47ec0b9	-2.3725705e-07
48	0x3111f6e0	2.124061e-09
49	0xb39ca80e	-7.294885e-08
50	0xb3b5cfce	-8.466269e-08
51	0x32f50ef4	2.8528554e-08
52	0xb447c4c2	-1.86049e-07
53	0x33db4a68	1.02115166e-07
54	0x33b5201a	8.4343085e-08
55	0x326886a2	1.3534789e-08
56	0xb337e818	-4.2819096e-08
57	0xb4cb27d4	-3.7840675e-07
58	0x32fc4a3b	2.9370417e-08
59	0xb3cfb3ce	-9.671895e-08
60	0x32e4afe0	2.6622672e-08
61	0x33ae34f3	8.112138e-08
62	0xb3d15209	-9.747243e-08
63	0x33972cd5	7.03964e-08

bn1.weight f4 [64]
0	0x3dbd72f2	0.0925044
1	0x3dc2f64c	0.09519634
2	0x3dce069a	0.10059853
3	0x3dc39bec	0.09551224
4	0x3dcd26ac	0.10017142
5	0x3db4b7ed	0.088241436
6	0x3db1a478	0.08673948
7	0x3dc05878	0.09391874
8	0x3dbb0c49	0.091332026
9	0x3dba1776	0.09086506
10	0x3de5fe13	0.112301014
11	0x3dc0a7ed	0.09407029
12	0x3db77007	0.089569144
13	0x3dd37992	0.10325922
14	0x3dcc767f	0.09983539
15	0x3db35c60	0.087578535
16	0x3dc308f8	0.09523195
17	0x3db6ad77	0.089198045
18	0x3dcf0b10	0.10109532
19	0x3dc2a61c	0.09504339
20	0x3dbecb60	0.093161345
21	0x3dc1b17a	0.09457679
22	0x3dc0e7d4	0.09419218
23	0x3dbe9459	0.09305639
24	0x3dd3bc77	0.10338681
25	0x3dbed80f	0.09318554
26	0x3dcc3861	0.09971691
27	0x3dc6edcc	0.09713325
28	0x3db4ec67	0.08834153
29	0x3dc35801	0.0953827
30	0x3dc63649	0.09678323
31	0x3dc4f8f0	0.096177936
32	0x3dc5b972	0.096545115
33	0x3dc13db2	0.094355956
34	0x3dd17729	0.10227806
35	0x3dd67c98	0.10472983
36	0x3dc8221a	0.09772129
37	0x3db58c6e	0.088646755
38	0x3dd7b4d5	0.10532538
39	0x3db81dc2	0.08990051
40	0x3dc2284c	0.09480342
41	0x3db52111	0.088441975
42	0x3dbf3d21	0.09337831
43	0x3dc048cf	0.09388887
44	0x3dbf1dd8	0.09331864
45	0x3ddaaf03	0.10677912
46	0x3dda8dfa	0.10671611
47	0x3db55d32	0.08855666
48	0x3dced704	0.10099605
49	0x3dbdb353	0.09262719
50	0x3db91cdc	0.090387076
51	0x3dcf5b4d	0.10124836
52	0x3dbbd807	0.09172063
53	0x3ddec31c	0.10877058
54	0x3dc6762f	0.096905105
55	0x3dacfadf	0.08446287
56	0x3dba4fce	0.09097253
57	0x3dba1b11	0.09087194
58	0x3dc54974	0.09633151
59	0x3db4be1e	0.088253245
60	0x3dab5d4c	0.08367404
61	0x3dd90d35	0.10598222
62	0x3dc3a2d2	0.0955254
63	0x3dc44c78	0.09584898

bn1.bias f4 [64]
0	0xbce96baf	-0.02849373
1	0xbd6a64d8	-0.05722508
2	0xbd51cf65	-0.051223177
3	0x3c462ac5	0.012095158
4	0xbbdb407a	-0.006691036
5	0xbc13fc56	-0.00903233
6	0x3c4e2178	0.012581222
7	0xbd1c4479	-0.038151238
8	0x3cd61012	0.02613071
9	0xbcd7b28f	-0.02633026
10	0xbd46e633	-0.04855938
11	0xbc7c9153	-0.015415507
12	0xbbcd377e	-0.0062627187
13	0xbd799c85	-0.060940284
14	0xbd245019	-0.04011545
15	0x3bde1938	0.0067779087
16	0xbccdf121	-0.025139393
17	0xbc736dcd	-0.0148577215
18	0xbd224382	-0.03961516
19	0xbcc4638b	-0.023973247
20	0xbc80c632	-0.015719507
21	0x3c9c965f	0.019114671
22	0xbb73fa59	-0.0037228076
23	0xbca56688	-0.020190492
24	0xbd558101	-0.05212498
25	0x3c29a5fe	0.010354517
26	0xbc2cdc62	-0.01055059
27	0xbd2d8816	-0.04236611
28	0xbbf4bbc1	-0.007468671
29	0xbbbf160f	-0.005831487
30	0xbc8dbb9d	-0.017301375
31	0xbd30e7b0	-0.043189704
32	0x3bac4cbf	0.0052581723
33	0xbd1d93a8	-0.038470894
34	0xbc9a2d28	-0.01882036
35	0xbd53254e	-0.05154925
36	0xbd0350cb	-0.032059472
37	0xbc092970	-0.008371696
38	0xbd5e0c9d	-0.054211248
39	0xbc193b19	-0.009352469
40	0xbbd5860f	-0.006516225
41	0xbc720069	-0.014770606
42	0xbc24c5a4	-0.010056887
43	0xbcda0200	-0.026612282
44	0x3c8d250a	0.017229576
45	0xbd84a03d	-0.064758755
46	0xbd6e0d42	-0.058118112
47	0x3b104670	0.002201464
48	0x3caee081	0.021347286
49	0xbc063c55	-0.008193095
50	0x3bded9b7	0.006800856
51	0xbcaa7b62	-0.020810787
52	0xbb205901	-0.0024467113
53	0xbd8c68d3	-0.06855931
54	0xbcad7a54	-0.021176495
55	0xbb5081e8	-0.0031815711
56	0x3be0edab	0.0068642697
57	0xbba8e88c	-0.005154675
58	0xbbb8e1f8	-0.005642172
59	0xbc384d1f	-0.011248856
60	0xbca56f7c	-0.020194761
61	0xbd748c23	-0.059703957
62	0xbc9b2e4c	-0.018942975
63	0x3c1c3c9b	0.009535934

bn1.running_mean f4 [64]
0	0xbc68aca5	-0.014201318
1	0xbc823454	-0.015894093
2	0x39fb7873	0.00047964192
3	0x3cb701a2	0.022339646
4	0x3cad92a8	0.021188095
5	0xbc45836b	-0.012055258
6	0xbc7c4350	-0.015396908
7	0xbc095947	-0.008383102
8	0x3ca473e3	0.02007479
9	0xbc37576b	-0.011190276
10	0xbc712af5	-0.014719714
11	0xbc55cf4f	-0.0130499145
12	0xbc8d2bd4	-0.017232813
13	0xbc67ce8a	-0.014148364
14	0xbcabe483	-0.020982986
15	0xbc8f0caa	-0.017462093
16	0xbc2d6aeb	-0.010584573
17	0xbca1fa03	-0.019772535
18	0xbbf424cc	-0.0074506756
19	0xbc384c2e	-0.011248631
20	0xbc40c6f0	-0.01176618
21	0x3c94d83a	0.018169511
22	0x3cadb68c	0.02120521
23	0xbc141ba3	-0.009039792
24	0x3aeff560	0.001830738
25	0x3cafca63	0.02145881
26	0x3cb2d83f	0.02183163
27	0xbc0f0ff7	-0.008731834
28	0xbc678d99	-0.014132881
29	0xbc55efc8	-0.013057657
30	0xbbf87803	-0.007582666
31	0xbc7e3325	-0.0155151235
32	0x3caa1d70	0.02076599
33	0xbc158ef4	-0.009128321
34	0xbbe643ff	-0.0070271487
35	0xbc40d5d9	-0.011769735
36	0xbb1aa7c7	-0.0023598538
37	0xbc6f75c4	-0.01461548
38	0xbc807f3d	-0.015685672
39	0xbc6e875b	-0.014558638
40	0xbc747f95	-0.014922996
41	0xbc7e4100	-0.015518427
42	0xbc1904de	-0.009339539
43	0xbc236bce	-0.009974433
44	0xbc8127a7	-0.015765978
45	0xbc8ed9ce	-0.017437842
46	0xbc80c812	-0.015720401
47	0xbc4c39fb	-0.0124649955
48	0x3cb49d4a	0.022047658
49	0xbc8858e8	-0.016643956
50	0xbc70149d	-0.014653352
51	0xbc00ab37	-0.007853321
52	0xbc5b5cff	-0.013388871
53	0xbc818244	-0.015809186
54	0xbbc1ab69	-0.0059103263
55	0xbc1bf2fd	-0.009518382
56	0x3c87444b	0.016512057
57	0xbc7f4c08	-0.015582092
58	0xbc595691	-0.013265268
59	0xbc8235ad	-0.015894735
60	0xbc50286f	-0.012704953
61	0xbc915843	-0.017742282
62	0xbad0adb4	-0.0015920908
63	0x3c6affae	0.014343185

bn1.running_var f4 [64]
0	0x39bff3d7	0.00036612034
1	0x3989f587	0.00026313608
2	0x39a1a1d7	0.00030828893
3	0x397ad09d	0.00023919572
4	0x397b826d	0.00023985813
5	0x399c41fc	0.000298038
6	0x399e1044	0.00030148227
7	0x399af351	0.00029554454
8	0x39710125	0.00022983977
9	0x39aa4dc6	0.00032482872
10	0x39969d4c	0.00028727425
11	0x3990d489	0.0002762417
12	0x39be5068	0.0003629953
13	0x397a22ff	0.00023854895
14	0x399e573a	0.00030201097
15	0x39b75eca	0.00034975103
16	0x39a2b953	0.00031037125
17	0x39e9f584	0.00044624147
18	0x39ac0c9e	0.00032815797
19	0x39ae5534	0.00033251347
20	0x398aecbf	0.000264978
21	0x398a5375	0.00026383591
22	0x3964e6de	0.00021829779
23	0x399299af	0.00027961793
24	0x398c7e57	0.0002679701
25	0x39885e85	0.00026010364
26	0x39805668	0.0002447844
27	0x39a0d580	0.00030676648
28	0x3999a676	0.00029306457
29	0x399f3c02	0.00030371553
30	0x399b84ed	0.0002966294
31	0x39abcb8c	0.00032767316
32	0x39880b0f	0.0002594818
33	0x399603f8	0.00028613186
34	0x39b23b11	0.00033994814
35	0x39433da4	0.00018619612
36	0x3992c04f	0.0002799057
37	0x399dcc65	0.0003009766
38	0x39a56ac3	0.00031550796
39	0x399f1cf5	0.00030348418
40	0x39a83f10	0.00032090442
41	0x39bd8b69	0.00036152758
42	0x399ba5df	0.00029687487
43	0x3980f505	0.00024596616
44	0x39b09f69	0.00033688106
45	0x399d406d	0.00029993374
46	0x396ee006	0.00022780904
47	0x39989851	0.00029105184
48	0x397c6fa4	0.00024074182
49	0x399a97c3	0.0002948624
50	0x39b0dff8	0.00033736206
51	0x39b08e90	0.00033675553
52	0x399f212a	0.00030351552
53	0x3993cedb	0.00028192144
54	0x39952fea	0.00028455193
55	0x399e5df1	0.000302061
56	0x395a3e0b	0.00020813213
57	0x39b52ff0	0.00034558726
58	0x39b31676	0.00034158275
59	0x398c098a	0.00026709988
60	0x398ec319	0.0002722971
61	0x39ccaa5c	0.0003903684
62	0x398a83ad	0.00026419517
63	0x3970b25b	0.00022954626

fc2.weight f4 [32, 64]
0	0x3c0103e1	0.00787446
1	0xbbfb39c4	-0.0076667983
2	0xbbb46e94	-0.005506346
3	0xbc2ac697	-0.010423324
4	0xbba83141	-0.0051328246
5	0xbb873d12	-0.004127153
6	0x3aa36762	0.0012466724
7	0xba9fa1ba	-0.0012178936
8	0xbb688a14	-0.0035482692
9	0x39954bf2	0.00028476078
10	0xbc0294d7	-0.0079700565
11	0x3ca91846	0.020641457
12	0x3c93e56a	0.01805373
13	0x3d1b5565	0.037923235
14	0x3c0120cd	0.0078813555
15	0x3bafe0c5	0.005367371
16	0x3b9d2604	0.0047957916
17	0x3caa57e9	0.020793872
18	0x3c9aaf82	0.018882517
19	0x3bc675e7	0.0060565355
20	0xbba263a8	-0.0049557276
21	0xbc733fa3	-0.014846715
22	0xbc16257c	-0.00916421
23	0xbb3417eb	-0.0027480077
24	0xbcc9856a	-0.02459975
25	0xbbf87aa0	-0.0075829774
26	0xbc14092a	-0.009035388
27	0x3cbdeb1a	0.023183394
28	0x3c541dae	0.012946529
29	0xbab99e4e	-0.0014161558
30	0xbb8e7aee	-0.0043481505
31	0xbb5f875f	-0.0034107787
32	0xbb73184a	-0.0037093335
33	0xbb880c32	-0.0041518444
34	0xbc3f6dcd	-0.011683893
35	0x3d3faf88	0.04679826
36	0xbbc7839d	-0.0060886876
37	0x3bfb83b2	0.0076756114
38	0xbb024587	-0.0019877867
39	0x3cf3974a	0.029735226
40	0x3cb20c2b	0.021734318
41	0x3c21a59d	0.009866145
42	0x3ca56a62	0.020192329
43	0x3d088027	0.03332534
44	0xbb49098c	-0.0030675856
45	0xbacf639f	-0.0015822536
46	0xbbe7ef7b	-0.007078109
47	0xbc05e70e	-0.0081727635
48	0xbc4205ad	-0.0118421735
49	0x3b83bf6a	0.004020621
50	0x3c7e67e2	0.015527697
51	0x3cb7e7b0	0.022449344
52	0x3a84ddf4	0.0010136948
53	0xbb7d48b3	-0.0038648068
54	0xbc06c4f8	-0.008225672
55	0xbb2864d9	-0.0025694876
56	0x3a7fee6a	0.00097630045
57	0x3cdb59ac	0.026776157
58	0x3ce98023	0.028503483
59	0x3b7fdf09	0.0039042851
60	0xba72e0fa	-0.00092650915
61	0xbb95d6a2	-0.0045727054
62	0x3c3bbed6	0.011459073
63	0xbc5a1b2f	-0.013312145
64	0xbc110018	-0.00885012
65	0xbc266bb5	-0.010157515
66	0xbced3b9a	-0.028959084
67	0x3cc78a14	0.024357833
68	0x3c8048ad	0.015659655
69	0xbcc245f7	-0.023715002
70	0xbc9452d6	-0.018105906
71	0xbc86936b	-0.016427716
72	0x3c61448e	0.013749255
73	0xbc49749c	-0.012295868
74	0xbc2fbeee	-0.0107266735
75	0xbc3f0bc2	-0.011660518
76	0xbc2d55c1	-0.010579527
77	0xbcc35e4d	-0.023848677
78	0xbceba98d	-0.028767372
79	0xbcc21866	-0.023693275
80	0xbbd00a5c	-0.006348891
81	0xbc0d3e69	-0.008620837
82	0xbc1db8ce	-0.00962658
83	0xbad1cfc8	-0.0016007358
84	0x3abb4621	0.0014287868
85	0x3cc764ac	0.024339996
86	0x3ca6fee6	0.020385217
87	0xbcf50920	-0.029911578
88	0x3cfd82a8	0.03094609
89	0x3c034be4	0.008013699
90	0x3ca5215b	0.020157507
91	0xbc8a7005	-0.016899118
92	0xbb5bfab8	-0.0033566188
93	0x3abc8fff	0.0014386176
94	0xbca99533	-0.020701027
95	0xbc00713c	-0.007839497
96	0x3bfdfd94	0.007751176
97	0xbc9e49e3	-0.019322341
98	0x3c10b81b	0.008832957
99	0xbcf09cd4	-0.029371656
100	0xbc9762e8	-0.01847978
101	0xbb81ea7b	-0.00396472
102	0xb90c099f	-0.00013355025
103	0xbbc3de58	-0.005977433
104	0xbc7536ee	-0.01496671
105	0xbbaed12f	-0.005334995
106	0xbbe280a1	-0.0069123064
107	0xbc5126c6	-0.012765592
108	0xbcbf8553	-0.023379004
109	0xbc4dcac5	-0.012560551
110	0xbc4e1ddb	-0.01258036
111	0x3bc826fe	0.006108164
112	0x3c4ab6e6	0.012372708
113	0xbc18499f	-0.009294896
114	0x3b3d81a7	0.002891639
115	0xbc49cf7a	-0.012317533
116	0xbca636f9	-0.020289885
117	0xbbab0001	-0.0052185063
118	0x3c5c81f3	0.013458717
119	0xbbad68e1	-0.0052920436
120	0x3c5fa2c4	0.013649646
121	0xbb173478	-0.0023072045
122	0xbc16ae1d	-0.009196785
123	0x391914bc	0.00014598941
124	0xbcfb8fd1	-0.030708225
125	0xbc39ee46	-0.011348313
126	0xbc302f4c	-0.010753464
127	0x3d186648	0.037206918
128	0x36947790	4.4246626e-06
129	0x3cb254fa	0.021769036
130	0x3c8ceebc	0.017203681
131	0xbc133026	-0.008983647
132	0xbc61ed76	-0.013789525
133	0x3cb2092f	0.021732895
134	0x3c40f38c	0.011776816
135	0x3cff4b22	0.031163756
136	0xbbcaf2be	-0.006193488
137	0xbb8129d1	-0.0039417525
138	0xbc9a83fa	-0.01886176
139	0xbc42d315	-0.011891146
140	0xbc7c1e4d	-0.015388084
141	0xbca07802	-0.019588474
142	0x3cac7803	0.02105332
143	0x3c8556f7	0.01627682
144	0xbb927043	-0.004468949
145	0xbc647c61	-0.01394567
146	0xbb940019	-0.004516613
147	0xbb8282c0	-0.003982872
148	0x3c9ebb22	0.019376341
149	0xbc4000a5	-0.011718904
150	0xbc1d23a3	-0.009591016
151	0x3cb1bad4	0.021695532
152	0x3be0c7ed	0.0068597705
153	0xbc2bd2af	-0.010487243
154	0xbc74f73f	-0.014951526
155	0xbc5af863	-0.013364884
156	0xbc46623d	-0.012108383
157	0x3c24638c	0.010033499
158	0x3cf6d466	0.030130576
159	0xbc4c21a9	-0.012459197
160	0xbc2d09dc	-0.010561433
161	0x3d03d9f7	0.03219029
162	0x3c061d50	0.0081857
163	0xbcc990d4	-0.024605192
164	0x3c74f40a	0.014950762
165	0x3b855069	0.0040684235
166	0xbcdab7e7	-0.02669902
167	0xbc71ea96	-0.014765402
168	0xbbec65b5	-0.007214273
169	0xbc7cbca5	-0.015425836
170	0xbc2fb502	-0.010724308
171	0xbc4c45a5	-0.012467776
172	0x3cda7d33	0.026671028
173	0x3d099d19	0.033597086
174	0x3d2bc62d	0.041937042
175	0x3bc43050	0.0059872046
176	0xbc1142f4	-0.0088660605
177	0xbb3791db	-0.002801052
178	0xbb9f7b20	-0.0048669726
179	0xbaab9d90	-0.0013093222
180	0x3c54d073	0.012989151
181	0xbc92c26f	-0.017914979
182	0x3cc6c523	0.024263924
183	0x3c369657	0.011144242
184	0xbc075c1e	-0.008261709
185	0xbc5b60b3	-0.013389754
186	0xbc6c02d8	-0.014404975
187	0x3bdb3bc0	0.0066904724
188	0x3cb7b716	0.02242617
189	0xbcd22fb1	-0.025657507
190	0x3af7d3a7	0.0018907682
191	0xbc06a5c2	-0.008218231
192	0xbb9ba55d	-0.0047499374
193	0xbcba3492	-0.022730146
194	0x3cd626b7	0.026141508
195	0xbc5e3825	-0.013563191
196	0xbc8e2f79	-0.017356621
197	0x3c888f47	0.016669882
198	0x3d0c1600	0.03420067
199	0x3ba1bce3	0.004935847
200	0xbc69bdd9	-0.014266455
201	0x3cff6799	0.031177329
202	0x3d22f724	0.039786473
203	0xbc1ee219	-0.009697461
204	0x3ca14116	0.019684356
205	0xbc20d48d	-0.009816301
206	0xbc37e3e9	-0.011223772
207	0x3d084d7a	0.033277012
208	0xbc02ff75	-0.007995476
209	0x3c95f6b8	0.018306121
210	0xbcb2ba4d	-0.02181735
211	0xbbd31c8a	-0.006442611
212	0xbc046914	-0.008081693
213	0xbc2614bf	-0.010136782
214	0xbc437a29	-0.011930981
215	0x3c3f28d4	0.011667449
216	0x3a81d518	0.0009905426
217	0x3b9dd690	0.0048168376
218	0xbc4a30ce	-0.0123407375
219	0xbbf4cef4	-0.00747096
220	0x3b9f1bd8	0.004855614
221	0xbc5a7c62	-0.013335319
222	0x3c38537b	0.011250372
223	0x3cb9b8ad	0.022671068
224	0xbc05f276	-0.008175483
225	0xb9a58d54	-0.0003157655
226	0xbbd773a8	-0.0065750666
227	0xbc15744a	-0.009121964
228	0x3cef897f	0.029240368
229	0xbbecb135	-0.007223273
230	0x3d005981	0.031335358
231	0x3b103d42	0.0022009169
232	0xba966979	-0.0011475525
233	0x3c8daeb5	0.01729522
234	0x3c104f2d	0.0088079395
235	0xbb9f6080	-0.0048637986
236	0x3c83606b	0.016037187
237	0xbca622a3	-0.020280188
238	0xbce07687	-0.027400268
239	0xbc502ef8	-0.012706511
240	0xbc3c304e	-0.011486126
241	0xbbf62bbb	-0.0075125373
242	0xbbc7b944	-0.0060950834
243	0xbc3021f6	-0.010750284
244	0x3ced2c14	0.028951682
245	0x3c760024	0.015014682
246	0xbc463378	-0.012097232
247	0xbba10bf5	-0.0049147555
248	0xbc6fd18d	-0.014637363
249	0x3c27bff5	0.010238637
250	0xbb98ca3e	-0.004662781
251	0xbbadb2f2	-0.005300873
252	0x3cff6dca	0.031180281
253	0x3cf29ff7	0.029617293
254	0xbccd4063	-0.025055116
255	0xbc077bc2	-0.008269252

fc2.bias f4 [32]
0	0xb4cff0f6	-3.8732077e-07
1	0x34854b39	2.4827912e-07
2	0xb3d7f09c	-1.0055484e-07
3	0xb41760a2	-1.4098126e-07
4	0x33fdefb5	1.1824833e-07
5	0xb4b9e372	-3.4624424e-07
6	0xb40809af	-1.266951e-07
7	0xb485eae6	-2.4944092e-07
8	0xb438af37	-1.7200078e-07
9	0x35151e8c	5.5551277e-07
10	0xb57d9990	-9.447331e-07
11	0xb49aa606	-2.8805533e-07
12	0x32d7f2f0	2.513977e-08
13	0x3480ab13	2.396633e-07
14	0x33df4c82	1.03981634e-07
15	0xb291ff10	-1.699621e-08
16	0x3312bb00	3.416335e-08
17	0x348c4e68	2.613408e-07
18	0x33c3e4e8	9.122033e-08
19	0x35099b5b	5.126255e-07
20	0x34fa386e	4.6607187e-07
21	0xb4853c02	-2.4816842e-07
22	0xb550cc66	-7.7783477e-07
23	0xb43344f0	-1.6695753e-07
24	0x348486e2	2.4685056e-07
25	0xb32d476f	-4.034467e-08
26	0x353089cd	6.5765636e-07
27	0xb4803523	-2.388052e-07
28	0x349aab0a	2.8809183e-07
29	0x35016f7f	4.8218493e-07
30	0x344a4ff6	1.8841806e-07
31	0x344b8b66	1.8956561e-07

bn2.weight f4 [32]
0	0x3f005134	0.50123906
1	0x3f0cc7b2	0.5499221
2	0x3f1bfedc	0.6093576
3	0x3f16c95e	0.5890101
4	0x3f0cbfea	0.5498034
5	0x3f181344	0.59404397
6	0x3f106745	0.56407577
7	0x3f13cfd9	0.57739025
8	0x3f06cf96	0.526605
9	0x3f1a4d91	0.60274607
10	0x3f118471	0.56842715
11	0x3f0ae393	0.542535
12	0x3f16025b	0.58597344
13	0x3efde2fe	0.49587244
14	0x3f029d6a	0.51021445
15	0x3f120883	0.5704424
16	0x3f14288b	0.57874364
17	0x3f172ae6	0.5904983
18	0x3f10ba39	0.56534153
19	0x3f16a414	0.58844113
20	0x3f0dfdf6	0.5546564
21	0x3f142c54	0.5788014
22	0x3f1e5b6d	0.61858255
23	0x3f0e359d	0.5555056
24	0x3f12376e	0.5711583
25	0x3f0c7447	0.54864925
26	0x3f13f21b	0.577913
27	0x3f044815	0.5167249
28	0x3f1aae65	0.60422355
29	0x3f130482	0.57428753
30	0x3f0426bc	0.51621604
31	0x3f0b5745	0.5443004

bn2.bias f4 [32]
0	0x3e60513f	0.21905993
1	0x3ecfc089	0.4057658
2	0x3e7dc3b5	0.24781688
3	0x3e71fce2	0.23631623
4	0x3ed1f7a7	0.41009256
5	0x3eb86039	0.36010912
6	0x3e842d55	0.25815836
7	0x3e8106ea	0.25200588
8	0x3ecbf734	0.3983704
9	0x3e90a9c1	0.28254512
10	0x3e74afd8	0.23895204
11	0x3ea2040f	0.3164372
12	0x3e9202d4	0.28517783
13	0x3e878607	0.26469442
14	0x3e7f0032	0.24902418
15	0x3e6a5857	0.22885261
16	0x3e94649c	0.2898301
17	0x3e78f5d1	0.24312522
18	0x3e62474e	0.22097513
19	0x3e7ae6ae	0.2450206
20	0x3ebe9ee0	0.37230587
21	0x3ebbcbaf	0.36678836
22	0x3e7d2749	0.24722017
23	0x3ecee4a5	0.40408817
24	0x3eb9e638	0.36308455
25	0x3e86dc19	0.26339796
26	0x3ebab046	0.3646261
27	0x3e6d8907	0.23196803
28	0x3e7e576f	0.24838041
29	0x3e71df2e	0.23620293
30	0x3e6004f0	0.21876884
31	0x3ece5d60	0.40305614

bn2.running_mean f4 [32]
0	0x3bc38ec4	0.0059679467
1	0xbc0127f1	-0.007883058
2	0xbac8b7ba	-0.0015313544
3	0x39b1951a	0.0003387116
4	0xbc081a4d	-0.008307052
5	0xbc39ab58	-0.011332355
6	0x3b946ad6	0.0045293374
7	0x3a8ad765	0.0010592757
8	0xbc0e2624	-0.008676086
9	0x3b95e652	0.0045745755
10	0xbb95ee54	-0.00457553
11	0xbc003673	-0.007825482
12	0x3bf56a67	0.007489491
13	0x39b79bbb	0.00035020508
14	0x3b905ee7	0.0044058445
15	0x39b55e72	0.00034593377
16	0x3c0f74f2	0.008755909
17	0xbb58e0fc	-0.0033093086
18	0xbb541d42	-0.0032366072
19	0xbb485db2	-0.0030573425
20	0xbc32119d	-0.010868457
21	0xbc1ba9f0	-0.0095009655
22	0xbaa62fe1	-0.0012679064
23	0xbbd7937a	-0.00657886
24	0xbc1ab722	-0.009443076
25	0x3c069dba	0.008216316
26	0xbc298294	-0.010346074
27	0x3a96012c	0.0011444441
28	0x3afad594	0.0019137138
29	0xba69dd7d	-0.0008921249
30	0x3ac75682	0.0015208276
31	0xbc2032e4	-0.009777758

bn2.running_var f4 [32]
0	0x3a213fa7	0.00061511475
1	0x3a3b7ca0	0.00071520545
2	0x3a3013a7	0.00067167956
3	0x3a30ca1b	0.0006743983
4	0x3a278a32	0.0006391137
5	0x3a29d7be	0.00064789865
6	0x3a1fa299	0.00060895976
7	0x3a4405d0	0.0007477673
8	0x3a28a80f	0.0006433734
9	0x3a4c999e	0.0007804873
10	0x3a3e6aba	0.00072638283
11	0x39f859cb	0.00047369147
12	0x3a754fe4	0.0009357913
13	0x3a045436	0.0005047949
14	0x3a2f61c7	0.000669029
15	0x3a18f6b8	0.0005835104
16	0x3a531506	0.0008052144
17	0x3a3d21f4	0.0007214837
18	0x3a412807	0.000736833
19	0x3a2ab3b0	0.0006511761
20	0x3a3104c1	0.00067527225
21	0x3a2cc8ff	0.000659123
22	0x3a3463d0	0.00068813283
23	0x3a413fbc	0.0007371863
24	0x3a2fa605	0.0006700459
25	0x3a4a5610	0.0007718513
26	0x3a261cf4	0.0006336712
27	0x3a166fe3	0.00057387183
28	0x3a317c10	0.0006770501
29	0x3a27ca5e	0.00064006995
30	0x3a0b1e74	0.0005306967
31	0x3a31883a	0.00067723135

fc3.weight f4 [3, 32]
0	0xbdf64d84	-0.12026504
1	0x3e2ecda7	0.17070638
2	0xbe6d44ab	-0.23170726
3	0x3ec02e87	0.37535498
4	0x3f01fada	0.50773394
5	0xbc8c6d08	-0.017141834
6	0xbf049efa	-0.5180508
7	0xbef24843	-0.47320756
8	0x3efac412	0.48977715
9	0x3cfbe005	0.03074647
10	0x3ee32b90	0.44369173
11	0x3ed4c093	0.41553172
12	0xbf1565eb	-0.5835864
13	0x3e11117b	0.14166825
14	0x3e3c109d	0.18365712
15	0xbef2cdee	-0.47422737
16	0xbf174db4	-0.5910294
17	0x3edb3431	0.42813256
18	0x3ebd3745	0.3695623
19	0x3ee29624	0.44255173
20	0x3df596a3	0.11991622
21	0x3eee1e5f	0.46507546
22	0xbe6255d1	-0.22103049
23	0x3f06c48d	0.5264366
24	0x3edc494b	0.43024668
25	0x3d515e9a	0.05111561
26	0x3d7f6112	0.062348433
27	0x3d970050	0.073731065
28	0xbdbb0bf4	-0.09133139
29	0xbebffee8	-0.37499166
30	0x3d326412	0.043552466
31	0x3f067f92	0.52538407
32	0x3e32d7a1	0.17465068
33	0x3f02a9bf	0.5104026
34	0xbed5eeba	-0.41783696
35	0xbef1f4e4	-0.4725715
36	0x3e7d91c0	0.2476263
37	0x3efd0a07	0.49421713
38	0x3e90ec21	0.28305152
39	0xbe284cad	-0.164355
40	0x3e8e6fd9	0.27819708
41	0xbf196ac1	-0.5992852
42	0xbe86985d	-0.2628812
43	0xbd5b895c	-0.053597793
44	0x3dfc0b2f	0.123068206
45	0x3ec1d2bd	0.37856093
46	0x3e2ee19e	0.17078254
47	0x3ebeb9c5	0.37251106
48	0x3d95905a	0.073029235
49	0xbec972e0	-0.39345455
50	0xbec7005c	-0.38867462
51	0xbed0c919	-0.40778425
52	0x3ee8bdc9	0.45457295
53	0x3e0dc095	0.13842995
54	0xbee75f14	-0.45189726
55	0x3eca0246	0.3945486
56	0x3efbb353	0.4916025
57	0x3dd93b25	0.10606984
58	0x3efb81da	0.49122506
59	0x3eb4dc15	0.3532416
60	0xbf0b30d7	-0.543714
61	0x3ededdf5	0.43528715
62	0x3ea2ad46	0.31772822
63	0x3e92574b	0.28582224
64	0xbf0055fe	-0.50131214
65	0x3ed88239	0.42286852
66	0x3ee6bdcc	0.4506668
67	0xbe38ec4a	-0.18058887
68	0x3ec3cc49	0.38241795
69	0x3efa04c7	0.4883177
70	0x3d0ddc6c	0.03463404
71	0x3ec83883	0.39105615
72	0x3ea0a9d5	0.31379572
73	0x3e7246c1	0.23659803
74	0xbec0f72f	-0.37688586
75	0x3eec30ae	0.4613089
76	0x3e30f816	0.17282137
77	0xbecb0645	-0.3965322
78	0xbefbc171	-0.49171022
79	0xbd8fdb92	-0.070243016
80	0x3e263776	0.16232094
81	0xbe8cfb50	-0.27535486
82	0xbe9200de	-0.28516287
83	0xbe825781	-0.25457385
84	0x3ee788a6	0.45221442
85	0x3ef2c54d	0.47416154
86	0x3edd9d9c	0.4328431
87	0x3e3d2ffa	0.18475333
88	0x3dd15812	0.10221876
89	0xbf14a8ee	-0.58070266
90	0x3ef02910	0.46906328
91	0xbedfc6d3	-0.43706378
92	0x3ea8685c	0.3289212
93	0xbe7382c0	-0.23780346
94	0xbee47c69	-0.44626167
95	0x3e981d8b	0.2971004

fc3.bias f4 [3]
0	0x3dd8c8e6	0.10585193
1	0x3e197f45	0.14989956
2	0x3e5da226	0.21643886
