Seminario.Api/classifier_fechas.onnx (onnx, 142923 bytes, 6 tensors)

fc1.weight f4 [128, 208]
-0.11783727 -0.04959529 -0.06613965 -0.1080659 -0.038174693 -0.08964065 -0.14955981 -0.006400707
-0.1377416 -0.11339821 -0.0072300984 -0.045274574 -0.12308257 -0.0509297 -0.12974232 0.012487757
-0.17064336 -0.0756193 -0.07046818 -0.02741676 -0.051751744 -0.108059846 -0.10912613 0.038330596
0.05671961 -0.07646548 0.07562234 0.121037476 0.0925465 -0.017503873 -0.17182142 0.24772543
0.17651466 -0.12884137 -0.11859899 -0.12863335 0.10313051 0.14216402 -0.024632607 0.058102824
0.090504594 0.14721413 0.18609609 0.10937661 -0.0055258195 -0.05208356 -0.09483862 0.050939936
0.16387859 0.0091619445 0.08177562 -0.08199554 -0.039823517 -0.094151676 0.20804897 0.14214742
-0.002744432 0.09501677 0.28174222 -0.12523869 -0.2885764 -0.10416463 0.046075486 0.15087374
0.13053961 -0.056018863 -0.1915274 -0.13218807 -0.13687342 0.16550164 0.10804291 -0.14994451
0.048538726 0.0048008254 0.16837853 -0.13733178 0.005750048 -0.21986207 0.105630584 0.17099412
0.110442795 0.16052021 0.18859419 -0.17540261 -0.08783111 -0.11183339 -0.15051848 -0.107341684
-0.030487306 -0.031998053 -0.050466035 -0.06325088 -0.17411195 -0.14100905 0.02497148 0.14620984
0.082988895 -0.022787012 -0.039159916 -0.0829856 -0.118913755 0.22982916 -0.05705457 0.042930875
0.1728421 -0.14010097 0.049450647 0.11119751 -0.02313822 -0.0050226217 -0.011514917 0.044456366
0.07493486 -0.22335497 0.15044469 0.08802332 0.103665836 0.1173464 0.24075139 -0.032792505
0.073312975 -0.195869 -0.10739268 0.06331413 0.18670003 -0.027697353 0.124095395 -0.048521694
0.019321471 -0.12793773 0.11386981 0.120531596 0.14063823 -0.15584186 0.075403124 0.058922462
0.065556675 0.14486368 0.20150529 0.14535375 -0.050735675 -0.06079098 0.045948558 -0.011805223
0.13956213 0.18686256 0.11229327 0.12066997 0.1194144 -0.06711522 0.15100524 -0.08996631
-0.0066236504 0.001999851 0.077870235 0.07716187 0.14217687 0.015114843 0.12445969 -0.13284855
0.0975296 0.13645503 0.15987097 0.1737423 0.21125072 0.13252945 -0.13959704 0.093801446
0.16963796 0.21367641 0.19253963 0.19143078 0.07380889 0.121590815 0.14551482 0.041009426
0.054797996 0.0726573 0.07688889 0.099382974 0.03673933 0.07085824 0.046255726 0.03772851
0.16800946 0.0058381185 -0.08958153 -0.043386627 0.15086986 -0.060470264 -0.09019688 0.19804668
0.09084185 0.15810151 0.09318269 0.06825249 0.13698609 0.03762 0.041395526 0.053038288
0.0802871 0.046629813 0.040729772 0.118876524 0.13863733 0.052821368 0.05484533 0.04656749
0.016705299 0.033451278 0.026190715 0.07217359 0.09284535 0.014161971 0.07953347 0.033853974
0.12072859 0.02844937 0.019006839 0.113023885 0.12544937 0.023137527 0.0709856 0.05268126
0.11669648 0.108624056 0.03290695 0.07997899 0.0391409 0.030232724 0.06309303 -0.03043636
-0.009429904 0.028930278 0.016841121 0.056819588 0.09735046 0.004841645 0.0845434 -0.11746244
-0.026673969 0.12582868 -0.013291253 0.07861198 -0.041339077 -0.09288933 0.10657603 0.14711106
0.14898095 0.103029914 0.12704322 0.085785426 -0.07164354 -0.045097608 0.0992056 -0.050799493
00000000: ab54 f1bd 6e24 4bbd 3a74 87bd a851 ddbd
00000010: 115d 1cbd 8495 b7bd 3526 19be 06bd d1bb
00000020: 220c 0dbe 523d e8bd 76ea ecbb d571 39bd
00000030: b712 fcbd a99b 50bd 2cdb 04be 7399 4c3c
00000040: 22bd 2ebe 4bde 9abd 9f51 90bd 1d99 e0bc
00000050: a3f9 53bd 7b4e ddbd 857d dfbd 8b00 1d3d
00000060: d252 683d ef99 9cbd e3df 9a3d 7fe2 f73d
00000070: 0589 bd3d 4864 8fbc f4f1 2fbe bcab 7d3e
00000080: 42c0 343e feee 03be 07e4 f2bd 76b8 03be
00000090: 1736 d33d 7293 113e 52ca c9bc 3afd 6d3d
000000a0: 795a b93d 4dbf 163e f98f 3e3e d800 e03d
000000b0: ef11 b5bb 9255 55bd c03a c2bd 65a6 503d
000000c0: cacf 273e fb1b 163c fa79 a73d 47ed a7bd
000000d0: fc1d 23bd 98d2 c0bd ca0a 553e 188f 113e
000000e0: eedb 33bb 2798 c23d 8440 903e 923e 00be
000000f0: 49c0 93be 4454 d5bd a6b9 3c3d a57e 1a3e
00000100: 2dac 053e 0974 65bd c21f 44be 4f5c 07be
00000110: 8c28 0cbe 4379 293e 9a45 dd3d 0e8b 19be
00000120: 8bd0 463d 3e50 9d3b 6c6b 2c3e b4a0 0cbe
00000130: e66a bc3b 8623 61be d954 d83d 1519 2f3e
00000140: d52f e23d 695f 243e d61e 413e be9c 33be
00000150: cce0 b3bd e808 e5bd 8421 1abe f5d5 dbbd
00000160: 84c0 f9bc 6410 03bd 79b5 4ebd ad89 81bd
00000170: 674a 32be ad64 10be fd90 cc3c 08b8 153e
00000180: 15f6 a93d d4ab babc 2666 20bd 5bf4 a9bd
00000190: 0e89 f3bd 5658 6b3e 0eb2 69bd 49d8 2f3d
000001a0: 85fd 303e a176 0fbe c38c 4a3d 85bb e33d
000001b0: 5d8c bdbc ce94 a4bb 10a9 3cbc e117 363d
000001c0: 7377 993d 2ab7 64be 2c0e 1a3e 9245 b43d
000001d0: c14e d43d 4f53 f03d 8887 763e 6f51 06bd
000001e0: 1d25 963d e291 48be b2f0 dbbd d7aa 813d
000001f0: 4b2e 3f3e 8fe5 e2bc ba25 fe3d afbe 46bd
00000200: 1048 9e3c 1c02 03be 9334 e93d 45d9 f63d
00000210: 7803 103e 0295 1fbe f46c 9a3d ae58 713d
00000220: 9442 863d 2557 143e 6757 4e3e 9dd7 143e
00000230: 36d0 4fbd f6ff 78bd 8e34 3c3d b26a 41bc
00000240: 60e9 0e3e e658 3f3e 04fa e53d d121 f73d
00000250: 898f f43d b473 89bd 1ea1 1a3e 4240 b8bd
00000260: 350b d9bb ef0f 033b 6e7a 9f3d 0b07 9e3d
00000270: d096 113e 3fa4 773c b9e4 fe3d 7309 08be
00000280: 99bd c73d deba 0b3e 37b5 233e 80e9 313e
00000290: 1c52 583e cdb5 073e 87f2 0ebe f91a c03d
000002a0: 93b5 2d3e fdcd 5a3e 1c29 453e 6e06 443e
000002b0: 1e29 973d 9b04 f93d d601 153e 80f9 273d
000002c0: dd73 603d 5acd 943d ec77 9d3d 4d89 cb3d
000002d0: fb7b 163d 201e 913d a576 3d3d 3689 1a3d
000002e0: ac0a 2c3e b04d bf3b 8576 b7bd 2db6 31bd
000002f0: a17d 1a3e abaf 77bd 24b9 b8bd c0cc 4a3e
00000300: 4b0b ba3d 5de5 213e 91d6 be3d f6c7 8b3d
00000310: 1546 0c3e 6e17 1a3d 5b8e 293d ad3e 593d
00000320: 906d a43d e7fe 3e3d 43d4 263d 8975 f33d
00000330: f2f6 0d3e 385b 583d 7fa5 603d 8dbd 3e3d
00000340: 8dd9 883c 3504 093d e98d d63c bfcf 933d
00000350: b425 be3d 9d07 683c 72e2 a23d 77aa 0a3d
00000360: 8d40 f73d a70e e93c 3bb4 9b3c 1179 e73d
00000370: cd75 003e e98a bd3c e660 913d 4ec8 573d
00000380: 90fe ee3d 4a76 de3d 70c9 063d 06cc a33d
00000390: 3552 203d 9eaa f73c eb36 813d ac55 f9bc
000003a0: e27f 1abc 31ff ec3c 64f6 893c a8bb 683d
000003b0: ae5f c73d a9a6 9e3b 1725 ad3d 2690 f0bd
000003c0: 5e83 dabc 3cd9 003e 8ec3 59bc 51ff a03d
000003d0: 2a53 29bd c33c bebd 8944 da3d 48a4 163e
000003e0: 768e 183e 5901 d33d 9e17 023e 45b0 af3d
000003f0: d9b9 92bd 45b8 38bd 4e2c cb3d 2113 50bd

fc1.bias f4 [128]
0.17749345 0.1146829 0.122894175 0.16289403 0.09448523 0.10797909 0.18401133 0.18291032
0.09748631 0.15091708 0.14154482 0.12213141 0.14072299 0.19843392 0.10055379 -0.05282562
0.11906159 0.20456213 0.10713665 0.13034822 -0.056535255 -0.059577096 0.09733387 0.15787172
0.12028468 0.1516625 0.17392999 0.15211283 0.18689536 0.0876755 0.14872359 -0.0580312
0.12916619 0.12278524 0.11135735 0.17150207 0.13879995 0.09926258 0.14026901 0.13375242
0.1326697 0.16126843 -0.05519205 0.11121169 0.0636084 0.12511307 0.12938999 0.07365969
0.121195436 0.12194422 0.098847516 0.12677513 -0.06925005 0.17224753 0.07860332 0.083629936
0.13860662 0.120722905 0.13876295 0.11064608 0.11181421 0.16052623 0.09682788 0.1700361
0.11137003 0.11260969 0.17734866 -0.0662706 0.13581903 0.13553771 0.16564663 0.11842533
0.14391227 0.116067395 0.18971093 0.10787285 0.10968891 0.14752275 0.10541447 0.09009417
0.093549274 0.08156304 0.105665356 0.1192907 0.09707553 0.07508875 0.13349359 0.13592738
0.09581726 0.17357801 0.17827109 0.13588873 0.096604444 0.10464191 0.15955585 0.12048468
0.10688384 0.12989932 0.12660442 0.14157309 0.14864115 0.10644089 0.13381565 0.10516678
0.12563077 0.108274385 0.13731994 0.18747528 0.20409968 0.113634974 0.1656731 0.14148779
0.12036663 -0.074055545 0.19286826 0.12998387 0.09163173 0.113248564 0.1153352 0.14855719
0.14940189 0.09562302 0.14358938 0.088609576 0.15661015 0.16569264 0.14926647 0.103639
00000000: d8c0 353e dede ea3d f1af fb3d b1cd 263e
00000010: 7981 c13d 2424 dd3d 776d 3c3e d84c 3b3e
00000020: e7a6 c73d 028a 1a3e 20f1 103e 0820 fa3d
00000030: b019 103e 4332 4b3e 25ef cd3d ad5f 58bd
00000040: 90d6 f33d bc78 513e 766a db3d 017a 053e
00000050: 8391 67bd 1d07 74bd fb56 c73d 20a9 213e
00000060: d057 f63d 6a4d 1b3e b41a 323e 77c3 1b3e
00000070: 7f61 3f3e 368f b33d ff4a 183e 20b2 6dbd
00000080: 2444 043e d476 fb3d 530f e43d 3d9e 2f3e
00000090: 9321 0e3e 2e4a cb3d aea2 0f3e 65f6 083e
000000a0: 91da 073e 8d23 253e 0f11 62bd f4c2 e33d
000000b0: 1f45 823d a41d 003e cf7e 043e e4da 963d
000000c0: 5035 f83d e4bd f93d 9170 ca3d 57d1 013e
000000d0: f8d2 8dbd a861 303e c7fa a03d 2c46 ab3d
000000e0: e5ee 0d3e 923d f73d e017 0e3e 699a e23d
000000f0: d9fe e43d fd60 243e b24d c63d f21d 2e3e
00000100: f815 e43d e99f e63d e39a 353e e1b8 87bd
00000110: 2514 0b3e 66ca 0a3e 459f 293e fb88 f23d
00000120: bd5d 133e beb4 ed3d 9543 423e 71ec dc3d
00000130: 94a4 e03d 3410 173e 8be3 d73d 4b83 b83d
00000140: c396 bf3d 860a a73d 1467 d83d af4e f43d
00000150: 89cf c63d 21c8 993d 8bb2 083e 8c30 0b3e
00000160: d73b c43d 6fbe 313e b28c 363e 6a26 0b3e
00000170: 8dd8 c53d 7f4e d63d 9c62 233e acc0 f63d
00000180: eae5 da3d 5404 053e 97a4 013e 89f8 103e
00000190: 6335 183e aefd d93d f806 093e ae61 d73d
000001a0: 5aa5 003e f6be dd3d 999d 0c3e 85f9 3f3e
000001b0: 82ff 503e 74b9 e83d 36a6 293e 2de2 103e
000001c0: c882 f63d 6faa 97bd 427f 453e 7e1a 053e
000001d0: 6ba9 bb3d ddee e73d dd34 ec3d 601f 183e
000001e0: cffc 183e 00d6 c33d 1809 133e f078 b53d
000001f0: 695e 203e 55ab 293e 4fd9 183e af40 d43d

fc2.weight f4 [64, 128]
0.028232463 -0.0007067161 0.06968814 0.10375172 0.007160977 0.092011824 -0.026450673 0.03219544
0.004917836 0.05790792 0.08518722 0.03648631 0.2671247 0.14440753 -0.039941583 0.033109166
0.10444403 0.12699012 0.10081558 -0.05744663 0.059433408 -0.04080627 0.16803822 0.10171362
0.118018575 0.0060502435 0.06376229 -0.046133358 0.20896095 0.056243483 0.04461184 0.08566811
0.22303672 0.11586324 0.12661594 0.17387667 0.18002617 0.30189493 -0.009673671 0.118904136
0.17277007 0.08283843 0.054676153 -0.19886392 -0.06493166 0.012695424 -0.21300378 0.102709696
0.004568005 -0.3036746 -0.2855417 0.22282235 0.065198265 -0.0452524 -0.098593175 0.04118996
0.0117228925 0.06578258 -0.051178906 0.089018546 -0.127243 0.1339155 0.026945155 0.13490331
-0.23502144 0.14594945 0.07219661 0.002960585 -0.124492615 -0.018549735 0.25602812 0.061271217
0.05845179 -0.123397484 0.3585297 0.07621725 -0.17781527 0.06116634 0.20624088 0.04544472
-0.03374838 0.13123019 -0.145601 -0.081061214 0.06935347 -0.14470653 0.2058734 -0.042623896
0.054358404 0.19447877 0.21624914 0.071291834 0.029503245 0.07491746 -0.06120257 0.019233149
0.13352132 0.13088398 -0.22789712 0.043464076 0.10589907 -0.14094682 -0.1441814 -0.08801861
-0.048173502 0.25552338 0.09628395 0.3521599 0.1658788 0.014662992 0.23437522 0.12609883
-0.11826518 -0.0014262344 0.29512566 -0.044326607 0.08797006 0.022826893 0.2249744 0.01818419
0.055088084 0.1792945 0.08153401 0.101257734 -0.119030096 0.23748867 -0.070068486 0.086726405
-0.025817487 0.08260729 -0.009228823 0.29011923 -0.041604884 -0.12763096 0.03568906 0.10499657
0.08028697 0.12365337 -0.0028827419 0.06740773 -0.020784002 -0.1283756 -0.03873914 -0.01340764
0.04073375 -0.28663355 0.08821995 0.16271605 0.024049722 -0.053813193 0.24460639 0.06525999
-0.0832162 0.24749525 0.19583644 -0.062391747 -0.16791923 0.24920177 -0.16186437 -0.024280831
0.1605452 0.016262278 0.06012095 0.32080108 0.06004415 0.33634913 -0.082155555 -0.01140658
-0.060710665 0.00994562 -0.07927859 -0.099988624 0.08358566 0.07426566 -0.023046052 0.03913808
0.026693778 -0.0018235889 0.13605441 0.015583458 -0.009806246 0.10239525 0.03483962 0.110630035
0.19739902 -0.016375445 0.09940955 0.14886817 -0.046784736 0.068890855 0.04299733 -0.15229824
-0.13351898 0.07838266 0.09062228 -0.06526099 0.09383486 0.118292004 -0.11832795 0.1659368
0.067653425 0.02747906 0.3402041 0.11722044 0.01785058 0.19383866 0.15573844 0.011638486
0.08492441 0.11028294 0.03391657 -0.011407143 0.04627406 0.08615148 -0.19327678 -0.2794151
0.11112526 -0.091056176 0.02027917 0.12261484 0.14314891 -0.17488404 -0.2637041 0.10380665
0.0544275 -0.18976642 0.06020319 0.10454518 0.058900245 0.09705354 0.13647138 0.16885535
0.017567432 -0.06523745 0.10110381 -0.056653462 0.25602314 -0.16450088 0.048977103 0.12358139
0.041137088 0.04206946 0.06397102 -0.123160526 0.014805554 -0.0056509716 0.16296807 -0.04689495
-0.10115403 0.092883624 0.022543056 0.077042066 -0.34386995 0.14748108 0.21563491 0.081910565
00000000: c447 e73c ea42 39ba a8b8 8e3d c87b d43d
00000010: a1a6 ea3b b270 bc3d 15af d8bc 5edf 033d
00000020: cc25 a13b db30 6d3d a376 ae3d ab72 153d
00000030: 92c4 883e 91df 133e c999 23bd 7a9d 073d
00000040: c0e6 d53d b309 023e 6678 ce3d 284d 6bbd
00000050: 7270 733d 7a24 27bd 3612 2c3e 3b4f d03d
00000060: b9b3 f13d 1f41 c63b ce95 823d 55f6 3cbd
00000070: dcf9 553e 915f 663d e8ba 363d c372 af3d
00000080: bd63 643e b549 ed3d 9ca7 013e ba0c 323e
00000090: c858 383e f991 9a3e 517e 1ebc 0384 f33d
000000a0: a3ea 303e 32a7 a93d 1af4 5f3d fca2 4bbe
000000b0: e4fa 84bd 7800 503c aa1d 5abe 7659 d23d
000000c0: 34af 953b 3d7b 9bbe 8632 92be 8b2b 643e
000000d0: ab86 853d 955a 39bd 38eb c9bd ceb6 283d
000000e0: 6011 403c 04b9 863d f9a0 51bd 5b4f b63d
000000f0: fd4b 02be 2521 093e 16bc dc3c 1824 0a3e
00000100: 76a9 70be c673 153e d1db 933d 6006 423b
00000110: fcf5 febd 9df5 97bc 1e16 833e 87f7 7a3d
00000120: 256b 6f3d d2b7 fcbd 3491 b73e ca17 9c3d
00000130: 3515 36be 8e89 7a3d cf30 533e 3e24 3a3d
00000140: be3b 0abd 3561 063e 6e18 15be 6c03 a6bd
00000150: 3109 8e3d f32d 14be 7ad0 523e 6596 2ebd
00000160: eba6 5e3d 7125 473e 6a70 5d3e 7401 923d
00000170: cab0 f13c 536e 993d 8caf 7abd d68e 9d3c
00000180: d0b9 083e 7306 063e dd5d 69be 6307 323d
00000190: 9de1 d83d 5d54 10be 4aa4 13be 1a43 b4bd
000001a0: 9451 45bd f6d3 823e 8530 c53d 4d4e b43e
000001b0: 22dc 293e 0c3d 703c 0f00 703e 0d20 013e
000001c0: 0435 f2bd 7cf0 baba b61a 973e d18f 35bd
000001d0: a629 b43d 77ff ba3c b05f 663e 03f7 943c
000001e0: 0ba4 613d fa98 373e 4efb a63d 3760 cf3d
000001f0: 0dc6 f3bd 3b30 733e 1180 8fbd 9d9d b13d
00000200: 327f d3bc 032e a93d 7d34 17bc 828a 943e
00000210: e269 2abd b1b1 02be b12e 123d 7108 d73d
00000220: 7f6d a43d fa3d fd3d 62ec 3cbb 100d 8a3d
00000230: 3643 aabc e574 03be efac 1ebd b8ab 5bbc
00000240: 6fd8 263d a2c1 92be a9ac b43d 099f 263e
00000250: ec03 c53c 396b 5cbd 197a 7a3e 08a7 853d
00000260: 416d aabd 656f 7d3e 5989 483e 7d8e 7fbd
00000270: 05f3 2bbe c02e 7f3e c6bf 25be 98e8 c6bc
00000280: f665 243e 7838 853c 6341 763d 0a40 a43e
00000290: dbf0 753d f435 ac3e 2c41 a8bd aae2 3abc
000002a0: bfab 78bd f4f2 223c d05c a2bd d6c6 ccbd
000002b0: f52e ab3d 9818 983d 13cb bcbc 404f 203d
000002c0: e9ac da3c 7d05 efba d951 0b3e c351 7f3c
000002d0: 60aa 20bc 9ab4 d13d fdb3 0e3d 0092 e23d
000002e0: f822 4a3e cc25 86bc 3c97 cb3d e670 183e
000002f0: 5aa1 3fbd a616 8d3d f81d 303d 12f4 1bbe
00000300: 33b9 08be 1787 a03d 2d98 b93d 8ea7 85bd
00000310: 7e2c c03d 1443 f23d ed55 f2bd 56eb 293e
00000320: e18d 8a3d c41b e13c 3b2f ae3e 4511 f03d
00000330: 613b 923c a47d 463e e679 1f3e 59af 3e3c
00000340: d9ec ad3d 06dc e13d 1aec 0a3d 07e5 3abc
00000350: de89 3d3d 3070 b03d 59ea 45be 7f0f 8fbe
00000360: a495 e33d a97b babd 8020 a63c 7d1d fb3d
00000370: a195 123e cd14 33be 3904 87be 9598 d43d
00000380: 5fef 5e3d 2152 42be 9f97 763d c91b d63d
00000390: 6241 713d 02c4 c63d 27bf 0b3e 6be8 2c3e
000003a0: 93e9 8f3c 369b 85bd 840f cf3d 760d 68bd
000003b0: 7715 833e eb72 28be 379c 483d 3d18 fd3d
000003c0: 5d7f 283d 0751 2c3d 3d03 833d 963b fcbd
000003d0: ff92 723c c92b b9bb 1ae1 263e eb14 40bd
000003e0: d829 cfbd c539 be3d 37ac b83c 3bc8 9d3d
000003f0: b90f b0be 4805 173e 66cf 5c3e bac0 a73d

fc2.bias f4 [64]
0.10867094 0.11656923 0.041684628 0.087294206 0.13548557 0.0985718 0.011388535 -0.049486045
0.12822051 0.072541066 -0.0033126604 -0.0012696434 0.16370872 0.0805959 0.09719326 0.13353287
0.12192323 0.116709605 0.080076255 0.045993578 0.05632563 0.133901 0.012983287 -0.02872534
0.06609827 0.11309572 0.08034881 0.057731494 -0.008194805 0.015664585 0.084938765 0.09333205
0.097374156 0.013481751 0.10659188 0.0146102095 0.114615835 0.05396406 0.0942519 0.1621465
0.11926708 0.009195775 0.09512693 0.047846198 0.10594742 0.059556495 0.047917966 0.11149663
0.016812408 -0.025193175 -0.015978301 -0.018008055 0.07640639 0.11006937 0.057158213 0.024191597
0.110270806 0.122304775 0.11736831 0.11140543 0.05396611 0.06504573 0.08720142 0.038418785
00000000: df8e de3d d9bb ee3d 80bd 2a3d 4ec7 b23d
00000010: bbbc 0a3e 03e0 c93d fa96 3a3c e1b1 4abd
00000020: 3d4c 033e 6990 943d 3819 59bb 2a6a a6ba
00000030: 42a3 273e 770f a53d 430d c73d d7bc 083e
00000040: e3b2 f93d 7205 ef3d 05ff a33d c363 3c3d
00000050: b4b5 663d 581d 093e dab7 543c 6751 ebbc
00000060: 885e 873d bb9e e73d eb8d a43d dc77 6c3d
00000070: 8143 06bc 0453 803c 60f4 ad3d e024 bf3d
00000080: 1a6c c73d 90e2 5c3c d84c da3d a95f 6f3c
00000090: b5bb ea3d 6b09 5d3d 2407 c13d bb09 263e
000000a0: 4d42 f43d e0a9 163c e8d1 c23d 60fa 433d
000000b0: f6fa d83d 83f1 733d a145 443d 5858 e43d
000000c0: 2dba 893c eb61 cebc ede4 82bc a185 93bc
000000d0: f47a 9c3d 0d6c e13d bb1e 6a3d 752d c63c
000000e0: a9d5 e13d ed7a fa3d cc5e f03d 8828 e43d
000000f0: 910b 5d3d b236 853d a896 b23d 045d 1d3d

fc3.weight f4 [8, 64]
-0.15713188 -0.097520515 -0.39333424 0.0035678167 -0.13332568 -0.2407923 -0.41952854 -0.014945787
-0.2432917 -0.31169388 0.083526954 -0.36012214 -0.20997566 0.054528907 0.0876427 -0.18911065
-0.016110308 -0.061233576 -0.2123953 -0.08429006 0.20799573 -0.29476202 -0.30351472 0.18258305
-0.15050375 -0.17765108 -0.159398 -0.35203022 -0.11288003 -0.036954887 -0.050453275 -0.15701228
0.00033078354 0.061629303 0.0022988138 0.24461412 -0.008024195 -0.4054135 -0.22886139 -0.08545482
-0.003994622 0.085736975 0.12116501 -0.0047714463 -0.22323602 0.0706831 0.050684627 0.038607225
-0.05999013 0.064188406 0.13542324 0.09684115 -0.1416995 0.089674234 -0.012778446 -0.11797538
-0.206814 -0.18152541 -0.5571426 0.10699102 -0.15214595 0.079978004 0.1551173 -0.098960705
-0.16607909 -0.061961256 0.069542184 -0.11830927 -0.22773477 -0.49661636 -0.40077475 -0.582193
-0.18749522 -0.11222591 -0.042040996 -0.35181415 0.08381444 -0.15563041 0.09272823 -0.18098079
-0.38375798 -0.12973525 0.24674352 -0.17682327 0.15657733 0.08292751 -0.42791662 -0.23250733
0.07582909 0.09144028 0.13705738 -0.17142184 -0.47567564 -0.1265457 0.12448501 -0.16951366
-0.030182162 0.25687486 0.16930729 -0.12973832 -0.22821231 -0.38564754 0.013747179 0.045649216
-0.03160661 0.2151445 -0.14153275 0.056059986 -0.08450102 -0.12559219 -0.10400209 -0.07311178
-0.09824174 0.094561115 -0.3402156 -0.062403716 0.035396054 -0.10948228 0.087208845 -0.16593876
0.026285606 -0.26063278 -0.53242946 0.07153149 0.03424469 -0.14103492 -0.0888491 0.025064021
0.09766409 0.052009594 -0.33665344 -0.035301793 -0.11926481 -0.021235706 0.19426344 0.03193399
0.036388908 -0.2436952 -0.097781934 -0.40319747 0.068146266 0.009981765 -0.25060922 -0.11345653
0.13059583 -0.22055334 -0.3836989 0.09132689 -0.32291737 -0.21322656 -0.39307082 -0.004547588
-0.36365426 -0.24888287 -0.18689772 -0.012556143 -0.27597135 0.15329114 -0.18908888 -0.26150188
0.10220074 -0.2647762 0.1003388 -0.25966585 -0.13141514 -0.023277128 -0.2539632 -0.23874189
-0.110134944 -0.34765035 0.059782606 0.04875369 -0.057961427 0.018324554 -0.16140462 -0.18975484
0.10060561 -0.51023746 0.1331886 -0.013128411 -0.15329076 0.03099594 -0.4221053 0.06728295
-0.21629201 -0.0017932358 0.029625352 0.23957843 -0.20724098 0.02410408 0.19074601 -0.13335764
0.022935634 -0.2453328 -0.16208056 0.042705107 -0.20507649 0.02784741 -0.4153889 0.009096297
-0.10820759 -0.25976312 -0.14660259 0.14153984 -0.22854273 -0.2292009 -0.104267284 0.05052082
0.09598834 -0.20132239 0.07686895 -0.13972338 -0.3855148 0.0066144667 -0.1468973 0.08324403
0.19661498 -0.05213384 0.3386022 -0.28248146 0.111951835 -0.33690128 0.06750397 -0.2223709
-0.28733635 -0.3506493 -0.4145304 0.057518456 -0.03464658 0.096136265 0.096387036 0.076894924
0.10663831 -0.049604043 -0.08797618 0.010816628 -0.13443737 0.02592292 -0.12649654 -0.070236795
-0.12574768 0.05925719 -0.34087083 -0.007593519 0.09757563 -0.009448123 -0.15724954 -0.18481097
-0.1755796 -0.12539159 -0.12357937 -0.11427912 0.16558453 -0.08341762 0.19086394 -0.13870731
00000000: 2ee7 20be d6b8 c7bd 1b63 c9be 08d2 693b
00000010: 8786 08be 4292 76be 72cc d6be 2ddf 74bc
00000020: 7621 79be 5796 9fbe 2e10 ab3d ee61 b8be
00000030: dc03 57be b459 5f3d 047e b33d 39a6 41be
00000040: c4f9 83bc 0fd0 7abd 277e 59be 44a0 acbd
00000050: d5fc 543e 0ceb 96be 4866 9bbe 0df7 3a3e
00000060: a81d 1abe 2aea 35be 3b39 23be 4e3d b4be
00000070: a52d e7bd 025e 17bd 18a8 4ebd d4c7 20be
00000080: 046d ad39 026f 7c3d b2a7 163b 207c 7a3e
00000090: ea77 03bc 5c92 cfbe a45a 6abe f002 afbd
000000a0: 51e5 82bb de96 af3d 5c25 f83d cb59 9cbb
000000b0: fc97 64be 4dc2 903d af9a 4f3d 9c22 1e3d
000000c0: 36b8 75bd 3675 833d 64ac 0a3e a754 c63d
000000d0: ac19 11be 20a7 b73d b05c 51bc 139d f1bd
000000e0: 0dc7 53be cce1 39be e6a0 0ebf 1c1e db3d
000000f0: 26cc 1bbe 82cb a33d 12d7 1e3e e9ab cabd
00000100: a310 2abe 16cb 7dbd 226c 8e3d 214c f2bd
00000110: 4e33 69be 8044 febe 5932 cdbe 9a0a 15bf
00000120: bffe 3fbe b3d6 e5bd 2e33 2cbd fc20 b4be
00000130: e8a6 ab3d 945d 1fbe 4ce8 bd3d 0753 39be
00000140: ed7b c4be 51d9 04be 55aa 7c3e 2911 35be
00000150: cf55 203e e6d5 a93d e317 dbbe 6716 6ebe
00000160: 484c 9b3d 0b45 bb3d c558 0c3e 3589 2fbe
00000170: c28b f3be 3295 01be fff1 fe3d fd94 2dbe
00000180: 9540 f7bc 1a85 833e e45e 2d3e 1fda 04be
00000190: 7db0 69be 9873 c5be d93b 613c acfa 3a3d
000001a0: ef75 01bd d74e 5c3e f6ed 10be 289f 653d
000001b0: df0e adbd 3d9b 00be 0cff d4bd a1bb 95bd
000001c0: f732 c9bd 42a9 c13d bd30 aebe 0a9b 7fbd
000001d0: 74fb 103d 3f38 e0bd 8d9a b23d daeb 29be
000001e0: e954 d73c a971 85be 4c4d 08bf 1a7f 923d
000001f0: 2944 0c3d 756b 10be 84f6 b5bd 1053 cd3c
00000200: 1c04 c83d 0308 553d d75d acbe 9d98 10bd
00000210: 1c41 f4bd 81f6 adbc ffec 463e 37cd 023d
00000220: 890c 153d 3c8b 79be e541 c8bd e66f cebe
00000230: 4590 8b3d 8f8a 233c da4f 80be e65b e8bd
00000240: eaba 053e bcd8 61be 2f74 c4be 9809 bb3d
00000250: 6d55 a5be 1058 5abe 9440 c9be ef03 95bb
00000260: e430 babe 27db 7ebe 1e62 3fbe 48b8 4dbc
00000270: 1e4c 8dbe 5af8 1c3e 84a0 41be 93e3 85be
00000280: 9f4e d13d bf90 87be 6e7e cd3d ecf2 84be
00000290: b191 06be adaf bebc 7707 82be c178 74be
000002a0: 6e8e e1bd 3aff b1be 9bde 743d f3b1 473d
000002b0: f668 6dbd 601d 963c 4147 25be 184f 42be
000002c0: 500a ce3d ec9e 02bf 9862 083e 8c18 57bc
000002d0: 41f8 1cbe 33eb fd3c 301e d8be a5cb 893d
000002e0: a77b 5dbe 020b ebba deb0 f23c 0c54 753e
000002f0: fb36 54be eb75 c53c ec52 433e e88e 08be
00000300: 83e3 bb3c 8638 7bbe 72f8 25be 8deb 2e3d
00000310: 92ff 51be 4020 e43c dbad d4be a308 153c
00000320: f19b ddbd acff 84be fd1e 16be d2ef 103e
00000330: 1b07 6abe a4b3 6abe 168a d5bd ebee 4e3d
00000340: 8995 c43d 7527 4ebe 786d 9d3d a513 0fbe
00000350: 3262 c5be 2bbe d83b 3f6c 16be d97b aa3d
00000360: 7055 493e 4b8a 55bd 445d ad3e 69a1 90be
00000370: 0147 e53d 537e acbe 853f 8a3d 32b5 63be
00000380: c01d 93be 4e88 b3be 543d d4be 7998 6b3d
00000390: 93e9 0dbd 17e3 c43d 9166 c53d 167b 9d3d
000003a0: 3065 da3d 9c2d 4bbd db2c b4bd 3a38 313c
000003b0: f3a9 09be 4e5c d43c 4f88 01be 4fd8 8fbd
000003c0: 00c4 00be abb7 723d 9f86 aebe 0ed3 f8bb
000003d0: bbd5 c73d 4dcc 1abc 0606 21be 163f 3dbe
000003e0: 23cb 33be a766 00be 2e17 fdbd 2c0b eabd
000003f0: fe8e 293e dbd6 aabd d671 433e 4a09 0ebe

fc3.bias f4 [8]
-0.03754425 0.06325486 -0.016316846 -0.046020474 -0.106294304 -0.09750939 -0.05395981 0.020984516
00000000: 00c8 19bd c48b 813d e8aa 85bc f77f 3cbd
00000010: d4b0 d9bd 01b3 c7bd f604 5dbd b8e7 ab3c
